models/best_model_epoch4.pt (torch, 64224 bytes, 13 tensors)

main.0.weight f4 [128, 30]
000000 d1 07 09 3e e0 fb 14 3e 02 0a 26 bd d5 f0 26 3e
       0.13381888 0.14549208 -0.040536888 0.16302808
000010 e4 cd 04 bd 11 3a f2 3c 66 4b b5 bd e5 c7 ce 3d
       -0.032422915 0.029568704 -0.08852272 0.100967206
000020 5f 9e 20 3e 4c 72 06 be e3 bc 1d 3e 5e 23 df 3c
       0.15685414 -0.13129538 0.15404086 0.027238544
000030 56 5c 03 3e 32 97 a7 3c d1 5c ad 3d 75 1b c7 bc
       0.12828192 0.020457838 0.08464969 -0.024305085
000040 60 8f 08 3e de d2 ba 3c de 46 be bd 01 e0 44 3d
       0.13335943 0.022805627 -0.092908606 0.04806519
000050 c7 67 9f bd 3a ee 6f bc 95 7d 93 bd 6a 70 fe 3d
       -0.07783466 -0.0146442 -0.07201687 0.12423785
000060 7a e8 0c be f7 96 a9 bd 57 7e 6c bd f8 69 e5 bd
       -0.13760558 -0.082807474 -0.057737675 -0.112018526
000070 a7 e1 57 3c e8 a5 39 be bf cf 2e 3e d6 06 21 be
       0.013176358 -0.18129694 0.17071436 -0.15725264
000080 fb 7b 18 3e 20 ff 21 3d 01 3f 8c bd 64 53 ea 3d
       0.14891045 0.039549947 -0.068479545 0.11441687
000090 f7 17 c0 3c c8 14 20 3e b2 96 bd 3c bf 7e 5c bd
       0.023448927 0.15632927 0.023143146 -0.053831812
0000a0 43 3e 5b 3d 74 04 54 bd 9b 74 ac 3d 4c 17 2b 3e
       0.053526174 -0.05176206 0.08420678 0.16708106
0000b0 43 8d eb 3d 7b 31 a2 bd 37 ad e1 3d 2e 42 08 3d
       0.11501553 -0.07919594 0.11019366 0.03326624
0000c0 91 9f c7 3d 53 af d9 bd 13 cd 31 be 08 95 8b bd
       0.09747232 -0.106291436 -0.17363386 -0.06815535
0000d0 62 fc 0f be a6 66 13 3e ca ba 59 3d 90 5e 97 3d
       -0.1406112 0.14394626 0.05315665 0.07391083
0000e0 27 ce 6f 3d db 6b 94 3b 0a 1e 16 3e a9 fb fe bd
       0.05854621 0.004529459 0.14659896 -0.12450344
0000f0 7f 8c 86 3c 5e cf f4 bd 58 6e 57 3d a5 79 64 bd
       0.016424416 -0.11953615 0.052595466 -0.05578007
000100 37 44 4a 3d c0 9e 18 bd 50 41 20 3e d8 54 d0 bd
       0.04938146 -0.03726077 0.15649915 -0.10172433
000110 71 21 db bd 77 df d6 bd 09 a8 2d 3e 3f 6a 5d 3d
       -0.10699738 -0.10491841 0.16958632 0.054056402
000120 7c e7 3a 3e d4 b7 16 be 8c ba 33 be 27 41 0d be
       0.18252367 -0.14718562 -0.1755163 -0.13794385
000130 29 19 f0 bd bd a1 a0 3d 5d 96 8f 3d ea a5 1d 3e
       -0.11723549 0.07843349 0.070111014 0.15395322
000140 16 6a c0 bd de 1d 03 be 35 6a c9 3d 57 fb a3 bd
       -0.09395234 -0.12804362 0.098347105 -0.08006924
000150 2e 7d e0 3d fe a8 3c bd 4b e7 d6 3d 09 2d 14 be
       0.10961376 -0.0460596 0.104933344 -0.14470305
000160 9e 89 b0 bd df df 6a 3d cf ec 1d 3d 75 d0 54 bd
       -0.086199984 0.057342406 0.038555916 -0.051956613
000170 60 95 de 3d b1 69 ee 3d eb ff 00 be eb f2 c9 bd
       0.10868335 0.11641253 -0.12597625 -0.09860786
000180 bf 47 2a 3e c0 3b 8a bd ea 3c 88 bd 2f 9b 34 be
       0.16628931 -0.06749678 -0.066522434 -0.17637323
000190 9d b3 dc bd 0c 45 41 3d 03 b1 ed bc e3 ac 08 be
       -0.10776446 0.04718499 -0.02901507 -0.13347201
0001a0 48 a8 59 ba ef a6 03 be 96 bb 20 be 20 4e d0 bd
       -0.0008302969 -0.12856649 -0.15696558 -0.10171151
0001b0 50 3c 21 be 18 06 e9 bd af 7f 3d 3e 90 25 13 3d
       -0.15745664 -0.113781154 0.18505739 0.035924494
0001c0 f7 94 6e 3d 42 ad 2c be 93 ef fe bd fe 3f 70 bd
       0.058247533 -0.16862968 -0.12448039 -0.058654778
0001d0 70 51 01 3d d3 59 24 be 19 d7 a5 bd 2c 26 df bd
       0.031571805 -0.1604989 -0.08097667 -0.108959526
0001e0 1e 89 d7 bb 0f 25 9a bd 4e aa cd bb 0f 4a 06 be
       -0.006577625 -0.075265996 -0.0062764054 -0.13114189
0001f0 88 65 ef bd 21 73 de bd a4 ea 85 bd 75 a6 1a be
       -0.116892874 -0.10861803 -0.06538895 -0.15102561
000200 fe 01 1c 3e d4 12 31 bd e6 7f 18 3e de 7e 81 3d
       0.15235135 -0.043230847 0.1489254 0.06323026
000210 d2 4f 26 be 2d 06 f8 3d b0 af 6f bd f5 e0 99 bd
       -0.16241387 0.12110553 -0.058517158 -0.0751361
000220 30 cf 22 be 6c 81 40 be 4a a5 35 3d fa d4 24 bd
       -0.15899348 -0.1879937 0.044347085 -0.040242173
000230 3b 28 9b 3d 65 e5 15 be f9 2c 04 3e 0c cc 04 be
       0.07576033 -0.14638288 0.1290778 -0.12968463
000240 a7 bd 03 bd fb fb 28 3d f6 77 be 3d 64 ad 17 3e
       -0.03216329 0.041255932 0.093002245 0.14812237
000250 cc fe 2c 3e 5d 9a 14 be bb 79 1c 3d 70 84 b1 bd
       0.16894072 -0.1451201 0.03820203 -0.086678386
000260 1a 83 8f bc 1a 2e 15 be 20 22 30 3e 79 17 04 be
       -0.017518569 -0.14568368 0.17200518 -0.12899579
000270 d3 5c c3 3d a6 bc 67 3d 30 92 55 3d ee 9e c3 bd
       0.09539189 0.056576394 0.05214137 -0.09551798
000280 69 49 22 3e 2b 34 2e 3d 46 03 6e 3c 3c 25 1e be
       0.15848316 0.04253022 0.014527148 -0.15443891
000290 59 02 8d 3d 63 b5 ff bc 28 04 b8 bd 8a 74 1d 3e
       0.068852134 -0.031214422 -0.08985168 0.15376487
0002a0 f7 30 21 3d 63 7b d2 bd e4 f7 c2 bd 8d 6b 24 bc
       0.039353337 -0.102774404 -0.09519938 -0.010035408
0002b0 86 e8 c6 3d 68 ff 30 bd c4 a3 d0 bd 98 19 71 bd
       0.09712319 -0.043212324 -0.10187486 -0.0588623
0002c0 7b c3 09 be 21 46 8a 3d 8c 6d 0f 3e 14 2e 37 be
       -0.13453476 0.06751657 0.14006633 -0.17888671
0002d0 67 48 0f 3d 06 5a ae 3d 3f 28 13 3d 85 d3 91 bd
       0.034981158 0.08513264 0.035927054 -0.07120422
0002e0 8d 9e d0 3d 58 04 c6 3d d9 fb 85 3d 29 a3 11 bd
       0.10186491 0.09668797 0.06542177 -0.035555992
0002f0 63 e0 67 bd 61 2e 75 3c 83 1b 24 bd f8 11 4e bd
       -0.056610476 0.014964671 -0.0400653 -0.050310105
000300 7f 2f dc 3d 58 31 1c 3e 79 2d db bc 83 ed 0f bd
       0.10751247 0.15253198 -0.026755081 -0.03513862
000310 41 25 93 bb 21 4a 1d bc 33 0d 39 3d ae 45 6a 3d
       -0.004490525 -0.009600193 0.045178603 0.057195358
000320 92 dc 27 be 61 0a 94 bd 8f 55 1d 3e 70 5e 9d 3d
       -0.16392735 -0.07228542 0.1536467 0.07684028
000330 1a 6d d6 bb f8 57 d7 bd 63 0e e7 bd f0 1b 29 be
       -0.0065437676 -0.105148256 -0.11282041 -0.16514564
000340 0b 08 6f bd 6e b7 82 3d 96 7b e2 3d 13 d8 ab 3d
       -0.05835728 0.06382643 0.110587284 0.08390822
000350 12 9a 28 be be 26 db bd a2 0b ee bc 05 2b 35 3e
       -0.16465023 -0.10700749 -0.029058281 0.17692192
000360 83 f9 e0 3c 24 06 36 bd 64 6f 8f 3d 3c e8 86 bd
       0.027462726 -0.04443945 0.07003668 -0.06587264
000370 33 2b eb bd 0c e1 03 3e 9b 9d a4 bd d7 98 fd bc
       -0.11482849 0.12878817 -0.08037873 -0.030956669
000380 af 9e 36 be 84 55 f8 3d f4 e8 0d 3e e6 82 88 3d
       -0.1783397 0.12125686 0.13858396 0.06665592
000390 6a 0d ff bd d4 d4 35 be c5 1a 1b be cc d1 08 3e
       -0.124537304 -0.17756969 -0.1514693 0.13361281
0003a0 d7 37 b0 3d b4 95 1e 3e 9e fd cf 3d f8 67 3b 3d
       0.086044006 0.15486795 0.101557955 0.04575345
0003b0 77 fa ec b9 64 91 13 be 18 cb 24 be 3c 75 34 be
       -0.0004520004 -0.14410931 -0.16093099 -0.17622846
0003c0 bc 6f 83 3d 10 0a c9 bd 00 13 0b bd 3a 68 e8 bd
       0.06417796 -0.098163724 -0.033953667 -0.11348005
0003d0 2d c2 c2 bc ee 30 0a be da eb e0 bd 87 d4 4f 3d
       -0.02377423 -0.13495228 -0.10982485 0.05073979
0003e0 87 a9 52 bd 7e d3 d7 3d 87 3f 89 bd 94 96 fe bd
       -0.051431205 0.10538386 -0.0670157 -0.12431064
0003f0 27 d7 2a bd 8f 2f a4 bd 70 8a 85 bd 75 e6 32 be
       -0.04170909 -0.080168836 -0.065205455 -0.17470725

main.0.bias f4 [128]
000000 4a 31 26 be ef 88 90 3d 0a 11 02 3e 17 03 e4 bc
       -0.1622974 0.07057368 0.12701812 -0.027833505
000010 db dc 00 3d f6 50 92 3d 91 73 43 be 9f a5 22 bd
       0.031460624 0.07144348 -0.19087054 -0.03970873
000020 fc 5b a1 bd f7 26 d4 bd f7 59 fb 3d 1e 0f 2e 3e
       -0.07878873 -0.103589945 0.12273019 0.16997954
000030 b0 c8 9f 3c a8 99 e4 3d a4 67 0c be 64 08 22 3d
       0.019504875 0.1116212 -0.13711411 0.039558783
000040 a1 98 51 bc 56 77 d6 bd 5b 86 19 3d 94 3d 77 3d
       -0.012792737 -0.1047198 0.037481647 0.06036146
000050 d1 f4 94 bc 9c cc b1 3d dd 99 a4 3d b2 df 34 3e
       -0.018183144 0.08681604 0.080371596 0.17663458
000060 db fe aa 3c 4a 5e 51 3c 8e 1f 4f bc 1b e8 a4 3c
       0.020873478 0.012778828 -0.012641801 0.020130208
000070 7d cd e1 bd 3d 3e 99 bc 1c d5 12 be ce 09 0d be
       -0.11025522 -0.018706435 -0.14339107 -0.13773271
000080 0c 82 28 be c0 31 ff 3d 6b ec db bd 34 45 cc bc
       -0.16455859 0.12460661 -0.107384525 -0.024935342
000090 74 4f d7 3c 11 2f 30 3e ab d9 a2 3d 1b 1c 0c be
       0.026283003 0.17205454 0.07951673 -0.13682596
0000a0 f7 de 3a 3e 2c 09 2a be 43 0a 03 3d 43 59 1f 3e
       0.18249117 -0.16605061 0.03199221 0.15561394
0000b0 58 f5 29 3e 0c 96 57 bd 4e 6e 03 be f2 e3 90 3d
       0.16597497 -0.05263333 -0.12835047 0.07074727
0000c0 15 3c 1a 3e d0 4f d4 bd a0 f7 97 bc 6f e7 ce bd
       0.15061982 -0.103667855 -0.018550694 -0.10102736
0000d0 28 da 82 3d 17 f5 e2 3c 14 d4 a3 3d 4d f2 8d bd
       0.06389266 0.027704759 0.07999435 -0.06930981
0000e0 5b 2c 3e be b0 c1 90 bd e9 5b 08 be 0a 1c 17 bd
       -0.18571608 -0.07068193 -0.13316311 -0.036891975
0000f0 d9 a5 88 3d b1 3f 1e be a3 3d 78 3a e2 7f 2b be
       0.06672258 -0.15453984 0.0009469634 -0.16748002
000100 3f ce 0d be 15 56 07 be a0 b5 94 bd 7b 44 d1 bd
       -0.13848208 -0.13216431 -0.07261205 -0.1021814
000110 c4 c6 94 3c af 23 f3 3d a9 37 04 3e ae de 8a 3d
       0.018161185 0.118720405 0.12911858 0.06780754
000120 3f a9 7e 3b fb 7a 2a bd b1 28 0a 3e 06 e6 d3 bd
       0.0038858203 -0.04162119 0.13492085 -0.10346608
000130 13 e8 04 3e 3b cf 3b be e7 4f 16 be 62 73 19 3d
       0.12979154 -0.18340771 -0.14678918 0.037463553
000140 56 ef 9e bd ac 29 0d 3d 24 2c 19 3e 09 19 b1 3d
       -0.077604935 0.03446357 0.14958245 0.08647353
000150 f7 a7 40 3e bb 53 ae bd c5 75 c6 bd 04 23 f4 bc
       0.18814074 -0.08512064 -0.096904315 -0.029801853
000160 37 3c fa bc b8 94 a9 bd 3d ba c3 b9 44 ab 33 3e
       -0.03054629 -0.08280319 -0.00037332057 0.17545801
000170 5c 48 b8 bd 5a e3 c2 3d e9 81 9e 3d 45 a8 eb 3d
       -0.089981765 0.0951602 0.07739622 0.11506704
000180 16 45 70 3d e6 db 6b bd b8 07 ab 3d 89 7f ae bd
       0.058659635 -0.05758276 0.083510816 -0.08520419
000190 83 e1 f7 bd f1 93 27 3e 48 10 11 3e 31 65 03 be
       -0.1210356 0.16365029 0.14166367 -0.1283157
0001a0 a5 39 1d 3e 5e 9b 34 3d cf c0 10 3d 2d 15 3f 3e
       0.15354021 0.044093482 0.035340127 0.18660422
0001b0 53 c8 b0 39 a1 e8 3f bd 65 cf ff 3d 38 d7 1c bd
       0.0003371859 -0.04685271 0.12490729 -0.038291186
0001c0 66 94 06 bd 22 89 81 bd 36 7d 43 3e 2a 9d a0 3d
       -0.032856368 -0.06324984 0.19090733 0.07842477
0001d0 d2 97 c1 bc d2 2f 69 bc 30 cb dd 3b 0f bb d4 bd
       -0.023631964 -0.014232593 0.0067686066 -0.10387241
0001e0 b8 5e 77 3d ac fb 1a be 0d 29 16 3b 96 1e fe bc
       0.060393065 -0.15135068 0.0022912652 -0.031020444
0001f0 7e e8 9f bd 34 d0 22 3e 0b c8 7a 3d 91 f4 c7 3d
       -0.07808016 0.15899736 0.061225932 0.09763444

main.1.weight f4 [128]
000000 e5 be 7e 3f a0 4e 81 3f bd e1 7e 3f 27 a5 7f 3f
       0.9951003 1.010212 0.995632 0.9986138
000010 40 b4 80 3f ac d0 7e 3f aa bc 80 3f e7 81 7e 3f
       1.0055008 0.9953716 1.0057576 0.99416965
000020 57 36 80 3f c0 a4 7f 3f ea 34 81 3f 7a 07 80 3f
       1.0016583 0.99860764 1.0094273 1.0002282
000030 98 ae 7e 3f d0 ca 7d 3f c4 dc 80 3f 66 2a 80 3f
       0.9948516 0.9913759 1.0067372 1.0012939
000040 16 54 81 3f 93 5c 7e 3f d4 e1 80 3f 58 77 7f 3f
       1.0103786 0.9936001 1.0068917 0.9979148
000050 72 81 7d 3f f8 5e 80 3f b4 83 7d 3f 46 48 81 3f
       0.9902564 1.0028982 0.9902909 1.0100181
000060 e6 e4 80 3f e7 72 7e 3f 6c 78 7d 3f 3e cb 7e 3f
       1.0069854 0.9939408 0.99011874 0.9952887
000070 c4 3a 7e 3f 09 ff 7f 3f 12 60 81 3f 2d b4 7e 3f
       0.9930842 0.9999853 1.0107443 0.99493676
000080 24 d8 7e 3f 51 2a 7e 3f fb b3 7f 3f 98 e0 7d 3f
       0.99548554 0.9928332 0.99884003 0.9917083
000090 03 8b 7f 3f a4 3e 81 3f 9f 2b 80 3f a3 bd 80 3f
       0.9982149 1.0097241 1.0013312 1.0057873
0000a0 3c 62 80 3f 02 02 80 3f e7 f6 7d 3f 91 57 80 3f
       1.0029979 1.0000613 0.9920487 1.0026723
0000b0 a4 42 80 3f 94 7e 80 3f cb 43 80 3f 21 8d 7d 3f
       1.0020337 1.0038629 1.0020689 0.9904347
0000c0 d9 6f 80 3f ee 12 7f 3f 54 1b 80 3f 08 56 80 3f
       1.0034133 0.9963826 1.000834 1.0026255
0000d0 54 a5 7e 3f 87 52 7f 3f e6 38 80 3f fa f0 80 3f
       0.9947102 0.997353 1.0017364 1.007354
0000e0 57 24 7f 3f ef 6d 7d 3f 60 ed 80 3f 94 0c 7e 3f
       0.99664825 0.9899587 1.0072441 0.9923794
0000f0 0e 8e 7d 3f 4a cb 7d 3f 49 63 81 3f 77 35 81 3f
       0.99044883 0.9913832 1.0108424 1.0094441
000100 d9 56 7e 3f 72 a6 7e 3f 19 30 7e 3f b5 eb 7e 3f
       0.9935127 0.99472725 0.9929214 0.9957841
000110 db bd 80 3f f8 b5 80 3f 9b 10 7e 3f 96 3b 81 3f
       1.0057939 1.0055532 0.9924409 1.0096309
000120 1e 4c 7f 3f 34 67 7f 3f 0b 44 81 3f 3c 39 7e 3f
       0.9972552 0.9976685 1.009889 0.9930608
000130 55 61 7e 3f 68 03 7f 3f e5 aa 7f 3f 15 b1 7f 3f
       0.99367267 0.9961457 0.9987014 0.9987958
000140 61 73 7e 3f ff a3 7e 3f 1c a7 7d 3f 48 d1 7e 3f
       0.99394804 0.9946899 0.99083114 0.9953809
000150 ba 27 80 3f 19 bf 7e 3f 21 64 7e 3f 25 b7 80 3f
       1.0012124 0.9951034 0.99371535 1.0055891
000160 09 bd 7f 3f 80 9d 7e 3f 54 37 81 3f f9 2b 81 3f
       0.9989782 0.99459076 1.009501 1.0091544
000170 86 ff 80 3f 90 41 7e 3f 2c 75 7f 3f 04 f3 80 3f
       1.007798 0.9931879 0.99788165 1.0074162
000180 08 cb 7f 3f 5f d9 80 3f 50 1b 81 3f e4 66 7e 3f
       0.99919176 1.0066336 1.008646 0.9937575
000190 30 73 7e 3f cc c6 7f 3f ec a2 7d 3f 61 39 7e 3f
       0.9939451 0.99912715 0.99076724 0.99306303
0001a0 f9 c2 80 3f bd 63 7f 3f 20 a6 80 3f 68 5d 7f 3f
       1.0059501 0.99761564 1.0050697 0.997519
0001b0 da d2 7f 3f 0f e5 80 3f f6 45 80 3f 78 30 7e 3f
       0.9993111 1.0069903 1.002135 0.9929271
0001c0 cd 57 81 3f 42 f4 80 3f 7c 54 81 3f 78 c8 7d 3f
       1.010492 1.0074542 1.0103908 0.99134016
0001d0 50 31 7f 3f 94 2d 80 3f 01 76 80 3f 58 e4 7d 3f
       0.9968462 1.0013909 1.0036012 0.9917655
0001e0 ca 77 7e 3f 4d 07 81 3f 6b 13 81 3f 81 f7 7d 3f
       0.99401534 1.0080353 1.0084051 0.99205786
0001f0 29 86 7e 3f 05 98 7d 3f 4e 67 7e 3f 82 33 7f 3f
       0.9942346 0.9906009 0.9937638 0.9968797

main.1.bias f4 [128]
000000 b6 0d 0d bc f2 0b 2e 3c 19 24 40 bb 7c d2 27 bb
       -0.008609226 0.010622965 -0.002931839 -0.0025607636
000010 ec 29 81 3b 3e dd dd bb 43 23 86 ba b6 6b e7 bb
       0.003941765 -0.006770759 -0.0010233897 -0.0070624007
000020 6d 08 ee ba 83 fb 07 b7 61 c8 1b 3c 4c b7 8a ba
       -0.001816047 -8.105187e-06 0.009508223 -0.0010583191
000030 d1 37 a4 bb d7 c6 0b bc 55 3c 82 3b 7a 70 8d 3b
       -0.0050115366 -0.008531294 0.0039744773 0.0043163868
000040 a0 ec 2d 3c d8 de ab bb b6 a9 31 3b 76 2b b2 3a
       0.010615498 -0.005245071 0.0027109212 0.0013593275
000050 a7 51 45 bb 34 5e c1 3b e4 fa a4 ba 37 80 29 3c
       -0.0030108483 0.0059011225 -0.0012586978 0.01034551
000060 ad 5a ff 3b 74 fa 88 bb 80 be 0d bb b9 1f 4a bb
       0.007792792 -0.004180247 -0.002162844 -0.0030841662
000070 10 0a 1a bb 12 d3 a2 3b 90 34 2c 3c 75 57 fe bb
       -0.0023504533 0.004969009 0.010510579 -0.0077618905
000080 27 33 c0 bb 8e 43 0f bc dc 40 b2 ba 3c b1 1b bc
       -0.005865473 -0.008744134 -0.0013599652 -0.009502705
000090 03 1b 78 bb 90 34 2e 3c 3d c2 08 3b 43 98 8e 3b
       -0.0037857897 0.010632649 0.0020867728 0.004351647
0000a0 04 2f 4b 3b f6 7e 86 bb d7 c9 83 bb eb c3 a3 ba
       0.0031003365 -0.0041044904 -0.004021864 -0.0012494301
0000b0 4d 4c de 3b 0e 6f 1d 3a 32 8e 69 3b aa f2 79 bb
       0.006783998 0.0006005623 0.0035637734 -0.0038139024
0000c0 52 85 c3 3b 9e ff 88 3b 83 ea 01 bb f0 7d 12 3c
       0.0059668208 0.0041808626 -0.0019823618 0.008941159
0000d0 4a 86 da ba d6 0b b8 bb 24 9d 92 39 99 34 b5 3b
       -0.0016672101 -0.0056166453 0.0002796437 0.005529952
0000e0 a4 66 d5 ba 69 0d f7 bb eb 2a a8 3b ac aa ba bb
       -0.00162812 -0.0075394404 0.0051320693 -0.005696615
0000f0 c5 a9 17 bc 13 90 15 bc 86 35 8c 3b 6c f7 2f 3c
       -0.009256785 -0.009128588 0.0042788414 0.010740142
000100 21 c1 03 bc 2a 19 f0 bb 13 4d bc bb 49 3d 32 3a
       -0.008041651 -0.0073272185 -0.0057464927 0.00067992933
000110 8c 37 39 3b 3c dc d5 3b 47 ba d0 bb 3c e8 0f 3c
       0.0028261868 0.006526498 -0.0063698622 0.008783396
000120 2d 31 b3 bb 0f 17 08 3b 06 10 a7 3b 7e c6 d7 bb
       -0.0054685087 0.0020765697 0.0050983457 -0.0065849414
000130 19 81 6b bb ac 38 ac bb 64 a2 10 bc c0 66 11 3b
       -0.0035935102 -0.0052557793 -0.008827779 0.0022186488
000140 a0 21 bf bb 7f e1 a8 3a 3f 84 05 3a dc 95 ae bb
       -0.005832866 0.0012884586 0.00050932536 -0.005327923
000150 6e 3a 18 3c 17 46 ce bb c7 c0 c9 bb 73 b8 51 3b
       0.0092912745 -0.0062949765 -0.006157014 0.003200081
000160 8e 3c 01 ba 48 9d fa 3b 61 3a 30 3c a8 18 25 3c
       -0.0004929983 0.007648144 0.010756106 0.010076679
000170 d8 de 89 3b a6 08 0b bc d1 bd 20 3b 39 5c 4a b9
       0.0042074732 -0.008485949 0.0024527202 -0.00019298577
000180 b1 68 8d 3b 0a db e1 3b eb f6 59 3b 97 13 49 bb
       0.0043154587 0.0068925666 0.0033258747 -0.0030681842
000190 2e dd 52 3b 12 48 88 bb 1a ad ae bb c4 d4 7f bb
       0.003217529 -0.004158982 -0.005330694 -0.003903673
0001a0 e9 25 c7 3b 9f 16 f1 3b 81 7d 76 bb 2f 3d 42 bb
       0.0060775173 0.007357433 -0.0037611427 -0.002963852
0001b0 41 e8 e9 3a 68 ad 28 3c b5 9e ea 3b f6 8b 22 bb
       0.0017845706 0.0102952495 0.0071600326 -0.0024802662
0001c0 32 87 e1 3b 12 cb 12 3c 37 ed d2 3b 93 aa dd bb
       0.0068825716 0.008959549 0.0064369696 -0.006764719
0001d0 ea 5b 7e bb 11 90 01 bb 7f 37 0f 3a e0 93 b2 bb
       -0.003881211 -0.0019769708 0.00054632867 -0.005449757
0001e0 ad fd ae bb 24 a4 9d 3b 12 f6 cf 3b cd 82 d6 bb
       -0.005340299 0.004810827 0.0063464725 -0.0065463544
0001f0 8c 8d c8 bb 5e d0 1c bc 60 f2 ac bb fb 0b 28 bb
       -0.0061203893 -0.009571163 -0.005277917 -0.0025641907

main.4.weight f4 [64, 128]
000000 d6 0e 7a bd 32 57 58 3c c3 30 97 3c 30 a3 1f 3d
       -0.061049305 0.013204383 0.018455869 0.038973987
000010 d3 e0 e5 bc 41 b1 9b bc 13 85 88 bd 24 06 47 3d
       -0.028061306 -0.01900542 -0.06666007 0.04858984
000020 4f 97 69 3d 1f ff 11 3d ac 38 3d 3d 90 89 43 3d
       0.057029065 0.035643693 0.046196625 0.04773861
000030 f1 f4 a0 3d 38 bf b1 3c 15 f0 07 3d 69 28 c4 3c
       0.07859219 0.021697626 0.033187944 0.02394505
000040 d6 15 4f bd 01 1d 76 3c 3c 5b a7 3c 68 17 93 bd
       -0.050557934 0.0150215635 0.020429246 -0.07182199
000050 84 20 00 bd 29 81 72 bd 0b 49 84 bd 70 b0 56 3d
       -0.03128101 -0.059205208 -0.06459244 0.052414358
000060 48 07 8e 3d 1b 53 9a bc f3 bd b0 3c 7b 2a ed bc
       0.069349825 -0.018838456 0.02157495 -0.02895092
000070 aa 8e c6 3c d8 ae bb bc 07 50 60 bd 03 1d 25 bd
       0.02423795 -0.02291052 -0.05476382 -0.04031087
000080 8c ff b9 3d d7 d6 16 3c 93 68 59 bd 4e d2 1e 3c
       0.09081945 0.009206495 -0.053078245 0.009693695
000090 18 a9 be bd 40 f0 09 bb 72 ea 78 3d 01 1a 04 3c
       -0.09309596 -0.0021047741 0.06077046 0.00806284
0000a0 86 da 8d 3c f1 79 ba bd cc b5 b8 bc a2 0d 3c 3d
       0.017316114 -0.0910529 -0.022547625 0.04591144
0000b0 f5 9a 8a bd 20 5e 3d bd f0 63 5b 3d 9e db 89 3c
       -0.06767837 -0.046232343 0.053562105 0.016828354
0000c0 45 bf 2f 3d 32 44 b6 bd f7 d1 59 3d 93 17 bf bc
       0.04290702 -0.08899726 0.053178754 -0.02332667
0000d0 b8 00 23 3c e6 56 80 3d ef 67 a9 bd 2a 03 a8 3c
       0.009948902 0.062665746 -0.08271777 0.020509321
0000e0 c0 dc a7 bd fa dd 69 3d 8d b9 93 3c 96 bf bb 3b
       -0.081964016 0.05709646 0.018032813 0.005729626
0000f0 60 61 22 bd 42 5a e6 3c f3 dc 53 bd 15 c2 a8 3c
       -0.039643645 0.02811921 -0.051724385 0.020600358
000100 bd 10 8a 3d bf 47 8d bd f4 ba 00 bd af 40 9e 3c
       0.06741474 -0.0689845 -0.031428292 0.019317953
000110 34 f7 21 3c a2 32 ec bb e1 4b a0 3d e9 1a be bc
       0.009885598 -0.0072081843 0.07826973 -0.023206191
000120 9a 0b 85 3c d2 a8 2f 3d 25 4c 8c bc b1 0e 64 3d
       0.016240884 0.04288561 -0.017126152 0.055678073
000130 9c 12 4f 3d 21 2c 12 3d 54 70 d9 bc c8 3c 8f 3d
       0.050554857 0.035686616 -0.02654282 0.06994015
000140 fc a6 60 bd 58 30 e4 3c e1 d0 76 3c 69 20 6d 3d
       -0.05484675 0.027855083 0.015064449 0.057892237
000150 5b 16 98 bd 99 b3 2b 3c 89 40 3e bd e4 d3 35 3d
       -0.07426139 0.010479831 -0.046448264 0.044391528
000160 0b ab b9 3c d3 ce 8a bd 9a a5 6f 39 1e 51 c8 3c
       0.022664567 -0.0677773 0.00022854508 0.024452742
000170 00 3e f0 3c dd e9 92 3d 76 c3 ff 3c f7 94 8c 3c
       0.029326439 0.07173512 0.031221133 0.017160876
000180 9b 26 2b 3d 4b 4e ab bd 0d 75 60 3d 26 f7 59 bc
       0.041784864 -0.083645426 0.05479913 -0.013303554
000190 ba 68 3e 3d 0d ae af 3c ca 2f 48 bc bc f6 6a 3d
       0.046486594 0.021445299 -0.012218425 0.05736421
0001a0 5e fa 7a bd d8 97 a9 3c 0d b3 09 3d ff dd 10 bd
       -0.061273925 0.020702288 0.03361802 -0.035367962
0001b0 11 85 cd 3c 08 b7 b0 bd 97 2b 42 bd e7 bb 27 3d
       0.025087865 -0.086286604 -0.04740485 0.040950682
0001c0 33 a1 42 3d d9 91 af bd 37 47 ae 3c 79 39 b4 3b
       0.047517013 -0.0857274 0.021274192 0.0055000153
0001d0 c7 5e a4 3d d8 40 b9 bd f9 74 d3 bc bf 18 4a bd
       0.0802589 -0.09045571 -0.025812613 -0.049340006
0001e0 82 3e 63 bd a4 02 a1 bc 40 4b a2 bd b9 8d 78 3d
       -0.055479534 -0.01965458 -0.07924509 0.060682032
0001f0 45 9d 11 bd 2e 31 f9 3c f0 43 6f bd 89 89 1f 3b
       -0.035550375 0.030418959 -0.0584144 0.0024343452
000200 43 97 8e bd 28 6c 88 3d 44 c9 9a 3d 5c b1 84 3d
       -0.06962445 0.06661254 0.075579196 0.06479141
000210 41 c2 d2 bc 8e d4 6b 3d 92 a1 96 bd f7 47 1d 3d
       -0.025727393 0.057575755 -0.07355036 0.03839871
000220 05 fc e8 bb 05 6c 8e bd 7d a5 a4 bd a6 fc ab bd
       -0.007110121 -0.06954197 -0.08039377 -0.08397798
000230 17 d5 8b 3c 6e ff 0a bd 18 3f 1c bd 33 35 a8 3d
       0.017069383 -0.033935003 -0.03814611 0.08213272
000240 f4 35 0e bd 9f 1f fb 3c 0c 61 5c bc 3e f0 4c 3d
       -0.034719422 0.030654727 -0.013450872 0.0500338
000250 e6 33 9f 3c 0b c9 4a 3d c6 24 6f 3c 7f b8 e5 bc
       0.019433927 0.049508136 0.01459617 -0.028042076
000260 0f 2d 8b 3d 33 91 fd bb 0d 5f 68 bd 23 c9 e4 3c
       0.067957036 -0.0077382564 -0.056731272 0.02792794
000270 3b 5e e3 bb f7 b0 97 bd 19 51 40 3c 42 e8 69 bc
       -0.0069387234 -0.074068 0.011738085 -0.014276566
000280 4d d1 1e bd d8 da 0a bd 9d ed 18 bd bb 92 e9 bc
       -0.038773824 -0.033900112 -0.03733598 -0.02851235
000290 d6 69 d3 b8 2a 2a 9d 3d 31 67 4e bd 8e 5b 17 bd
       -0.000100809775 0.07674058 -0.05039138 -0.036952548
0002a0 a5 b1 8b bd 6b 9a 8b bb e1 a3 7d 3b 72 9a 6c bd
       -0.068209924 -0.0042603514 0.0038702416 -0.057764478
0002b0 15 9a 00 3d 80 3c 90 bd 69 49 ac 3d 0c 56 9a 3c
       0.031396944 -0.070427895 0.084124394 0.018839858
0002c0 14 e3 78 bc 3c 12 1c bd c5 8c 22 3d 81 4d 6c 3d
       -0.015190858 -0.038103327 0.03968503 0.0576911
0002d0 0b 57 62 bd c1 1a 95 bc b1 ba 8c 3d bb 00 05 bc
       -0.055258792 -0.018201234 0.06871546 -0.00811785
0002e0 60 e6 91 bd 40 ee e9 bc ef a2 57 bb d8 67 87 bc
       -0.07124019 -0.02855599 -0.0032903512 -0.016529009
0002f0 15 0c 74 bd 8b 49 43 bd 1f a2 7e 3c 00 9c 56 3d
       -0.059581835 -0.047677558 0.015541582 0.052394867
000300 2d a8 a9 3d b9 8b 32 bc e8 8d 08 3d 26 42 94 bd
       0.0828403 -0.01089757 0.033338457 -0.07239179
000310 de 81 3a 3d 20 b0 9a 3d 5a 02 24 3d f4 ba 34 bd
       0.045534007 0.075531244 0.040041305 -0.044123605
000320 4f 91 96 3d 63 04 af bd 9c 7b 8a bc 91 86 a3 bc
       0.07351934 -0.085457586 -0.016904645 -0.019961627
000330 93 6f c7 bd 41 ca 6b bd e7 8a 87 bd 77 50 94 3c
       -0.09738078 -0.05756593 -0.066182904 0.018104775
000340 59 48 2c bc c7 9d 08 3d 1c 93 d3 bc 16 75 91 3d
       -0.010515296 0.033353593 -0.025826983 0.071024105
000350 90 4d 3f 3b 96 46 9c 3d 74 9a 9e 3d 57 16 91 bd
       0.0029190518 0.07630651 0.07744303 -0.07084339
000360 c4 52 78 bd 4d ee 3e 3d 5e f5 97 3d 9a 89 a8 bd
       -0.060625806 0.04661398 0.07419847 -0.082293704
000370 af af d8 bb 10 60 07 bd 77 14 9a 3d 12 90 84 3d
       -0.00661274 -0.033050597 0.075234346 0.06472792
000380 ab 0e 6b 3d 1a af 4d 3d b1 fb 85 bc 09 93 9a 3d
       0.057387035 0.050215818 -0.016355367 0.07547576
000390 f5 51 1c bd a2 1b 7d 3b 55 e1 e9 bc fe 66 8e bd
       -0.038164098 0.0038621207 -0.02854983 -0.06953238
0003a0 29 d0 32 bd 62 ed 95 3c ed c4 1b bb 3d 85 64 bd
       -0.04365555 0.01830167 -0.00237685 -0.05579113
0003b0 d6 84 65 bc 06 12 fc 3b 5d 54 72 bd fb 41 6b 3d
       -0.014008721 0.0076925782 -0.059162486 0.05743597
0003c0 41 0a a3 bd d8 17 d9 bb d3 1e 97 bd 6e 92 a2 bd
       -0.0796094 -0.006625157 -0.07378926 -0.079380855
0003d0 6d aa 99 bb 6e 02 a8 3d 00 1c a7 3d 0a ed 1a 3d
       -0.004689506 0.082035884 0.081596375 0.037823714
0003e0 ca 2a 82 3d a2 cf 30 bd ee ea 2c 3d aa 19 68 3d
       0.063558176 -0.043166764 0.042216234 0.0566651
0003f0 83 ec ba bd db c7 8c bd ac 8b 36 3d fc 8d 76 3b
       -0.09127142 -0.06874057 0.044566795 0.003762125

main.4.bias f4 [64]
000000 02 80 d1 bb 13 79 95 bd 82 f8 73 bd 60 88 59 bd
       -0.0063934335 -0.07298484 -0.059563167 -0.053108573
000010 f2 59 8a 3c 58 0a 42 bd a9 3d 8b bd 7f 97 5b bd
       0.016888592 -0.047373146 -0.0679887 -0.053611275
000020 5e 13 15 bd b7 16 91 bc cc fe 77 bd b6 78 d6 3c
       -0.036395423 -0.017711027 -0.060545728 0.026180606
000030 2f 34 0e bc a3 ba 86 bd db ad 12 3d a1 a8 a4 3c
       -0.008679434 -0.06578567 0.035810333 0.02009994
000040 e7 d0 97 3c 12 73 ac 3d 66 49 42 bc b0 fa 54 3d
       0.01853223 0.084203854 -0.01185832 0.051996887
000050 90 45 2f bd cc 0d 38 bd 22 e3 c8 3c 1f ad 26 bd
       -0.04279095 -0.044935033 0.024522368 -0.040692445
000060 0c 87 2b 3d 47 45 b4 bd 34 64 e3 bc 1b 0d ac 3d
       0.041876838 -0.08802276 -0.027757742 0.08400937
000070 30 36 8a ba 3e e0 65 3d aa 69 9f 3d 15 31 d7 bc
       -0.0010544714 0.056122057 0.07783826 -0.026268521
000080 f2 e2 1d bc 8c a0 74 bc ac 4c 55 bd 3a 63 af 3a
       -0.0096366275 -0.0149308555 -0.052075073 0.0013381012
000090 02 6e 3d 3d 99 a8 90 3d 93 a5 87 3d a3 a5 b0 3d
       0.04624749 0.070634075 0.06623378 0.08625343
0000a0 7c b0 17 bd 81 83 68 bd b7 f7 a5 bd 03 15 3d 3d
       -0.037033543 -0.056766037 -0.081038885 0.046162616
0000b0 88 07 07 3d da a9 81 bc 43 92 96 3d e3 c8 79 bd
       0.032966167 -0.015828062 0.07352116 -0.060982596
0000c0 2a e8 e2 bb 98 ff 8a bb ec 56 05 3d e4 ee 86 3d
       -0.006924649 -0.004241895 0.0325536 0.065885335
0000d0 69 82 64 bd 03 23 ca 3d 25 ea a3 3d 72 eb db 3c
       -0.05578843 0.09869959 0.08003644 0.026845668
0000e0 2a 63 50 bd 0c 7f da 3c 99 e9 85 3c ad fd 02 bd
       -0.05087582 0.026671909 0.01634674 -0.031980205
0000f0 8f aa af 3d a3 7e a5 bd 04 ad d7 bc 75 02 2a bd
       0.08577453 -0.08080795 -0.026327617 -0.04150625

main.5.weight f4 [64]
000000 f2 d6 7d 3f 5a e3 7d 3f 6b 13 80 3f 9f 59 7d 3f
       0.99156106 0.99175036 1.0005926 0.98964876
000010 0c f8 7f 3f 10 32 7e 3f f8 57 80 3f f8 3a 80 3f
       0.99987864 0.9929514 1.0026846 1.0017996
000020 fd a4 7d 3f d2 1d 80 3f ca 28 7e 3f 01 7c 80 3f
       0.9907988 1.00091 0.9928099 1.0037843
000030 7c 4a 80 3f 4f b0 7e 3f 97 65 7e 3f d4 5a 80 3f
       1.0022731 0.99487776 0.99373764 1.0027719
000040 4f 05 81 3f 71 06 7f 3f e1 4a 7f 3f 42 53 7f 3f
       1.0079745 0.99619204 0.9972363 0.99736416
000050 69 98 80 3f bc 33 7e 3f 33 c5 80 3f 0b 10 81 3f
       1.0046512 0.9929769 1.006018 1.0083021
000060 78 ce 7d 3f bf 20 80 3f db 46 7e 3f b6 8d 7f 3f
       0.9914317 1.0009993 0.99326867 0.9982561
000070 a9 61 80 3f 86 73 81 3f 7a 8d 7e 3f bc 13 7f 3f
       1.0029804 1.011338 0.99434626 0.9963949
000080 01 64 81 3f 26 f8 7e 3f 5e 15 7e 3f 9e 26 80 3f
       1.0108644 0.99597394 0.99251354 1.0011785
000090 78 8a 80 3f 79 d2 7e 3f 4f 8d 80 3f 66 5d 7f 3f
       1.0042257 0.99539906 1.0043124 0.9975189
0000a0 1e 48 81 3f ea 4c 80 3f 0f 38 81 3f c0 fe 7d 3f
       1.0100133 1.0023472 1.0095233 0.9921684
0000b0 1e 31 7e 3f a6 57 81 3f 98 3d 81 3f 22 13 81 3f
       0.99293697 1.0104873 1.0096922 1.0083964
0000c0 7f b6 80 3f 63 b1 7f 3f ec 73 7f 3f eb 06 7e 3f
       1.0055693 0.99880046 0.9978626 0.99229306
0000d0 f6 a2 7e 3f 4c 41 81 3f 53 c8 7e 3f 4c 97 80 3f
       0.9946741 1.0098052 0.9952442 1.0046172
0000e0 05 bb 80 3f 03 e7 80 3f da 2b 81 3f cd 2d 7e 3f
       1.0057074 1.0070499 1.0091507 0.99288636
0000f0 bf ba 80 3f f5 8d 7d 3f 58 fa 80 3f b0 55 7e 3f
       1.005699 0.99044734 1.0076399 0.993495

main.5.bias f4 [64]
000000 c1 4c 0e bc 32 1e 01 bc 1f 30 11 bb 87 90 b1 3b
       -0.008685292 -0.007880734 -0.0022153927 0.0054188403
000010 77 79 e3 ba af 9d ad 3b 44 84 99 3a b5 4e 88 bb
       -0.0017354925 0.0052983384 0.0011712392 -0.0041597732
000020 2c a5 dc bb 9a 85 c6 3b d5 fe c9 bb 92 16 60 b7
       -0.006733557 0.006058407 -0.0061644115 -1.33566955e-05
000030 4d 25 12 3b b3 a8 38 bb e9 71 c0 bb 1b b6 a4 ba
       0.0022300065 -0.0028176724 -0.005872954 -0.0012566479
000040 a1 b0 86 3b 1b 6f 6b bb f1 00 a5 3a 70 87 86 bb
       0.0041104113 -0.0035924378 0.0012588782 -0.004105501
000050 52 06 e8 3a c9 de 18 bb a0 c3 36 3a 8d f4 b3 3b
       0.0017702079 -0.002332615 0.00069718994 0.005491799
000060 d0 ec 21 3b de b2 d9 bb c1 e2 4a 3b 57 07 99 bb
       0.0024707802 -0.006643637 0.003095791 -0.0046700644
000070 ba 91 f7 3a 51 9b 04 3c 6a 9d 1c bb d2 77 0b bb
       0.0018888034 0.008093671 -0.0023897537 -0.0021281135
000080 57 c3 32 3c 69 a3 63 bb 2d 6e 09 bc 02 02 60 3b
       0.01091083 -0.0034734851 -0.008388084 0.0034180884
000090 65 0f 79 3b 6f 1f d4 bb 3f f6 7a 3b 5e 75 ef ba
       0.003800356 -0.0064734737 0.0038293747 -0.0018269231
0000a0 06 f1 ef 3b bb c6 1a 3b f2 1d bb 3b 51 3e d5 bb
       0.0073224334 0.0023616988 0.005710357 -0.006507673
0000b0 16 3a e1 bb b0 ae b5 3b 95 7e b8 b8 eb 82 c0 b9
       -0.0068733795 0.005544506 -8.7973815e-05 -0.00036718635
0000c0 d6 1f e6 3b 07 d2 12 bb ca df 64 bb 66 29 09 bc
       0.007022838 -0.0022403018 -0.0034923428 -0.008371687
0000d0 28 f6 c6 bb 69 4e 2a 3c 52 4c 97 bb 6a 38 33 3b
       -0.0060718246 0.010394671 -0.0046172524 0.0027346858
0000e0 e9 15 e6 3b 8f f5 4b bb 32 d0 34 bb 45 3a b0 b9
       0.007021655 -0.0031121706 -0.0027589914 -0.0003361275
0000f0 3d d1 2f 3a 6e 82 22 bc 3e cb 9d 3b 7f 1d 11 bc
       0.0006706899 -0.009918792 0.004815488 -0.00885713

main.8.weight f4 [32, 64]
000000 4d 81 20 bd 5f 57 c6 3d 71 f6 5e bc 5e d7 16 3c
       -0.03918581 0.096846335 -0.013608561 0.009206621
000010 17 f4 ec bd 20 45 9f bd 46 7d 94 3d 09 2d 01 bd
       -0.11569994 -0.077768564 0.072504565 -0.03153709
000020 62 fc 24 3d f4 ff cb bd 95 65 99 bd a8 e5 58 3d
       0.040279754 -0.099609286 -0.07490078 0.052953392
000030 7a b0 b4 3d 43 af 52 ba ad 40 ee bd 8d 90 a9 bd
       0.08822723 -0.000803698 -0.1163343 -0.08279524
000040 73 c2 51 bd 74 4d 50 3d e4 c9 be bd 10 df a5 bd
       -0.05121083 0.050855115 -0.09315851 -0.080991864
000050 5c ac 00 be 13 70 b9 bd c8 d6 c7 3d 44 27 2d bd
       -0.1256575 -0.090545796 0.09757763 -0.042273775
000060 c4 e0 bb bc 2c 08 fe 3b dd 6f 90 bc e1 d0 47 bd
       -0.022934325 0.007752439 -0.017631466 -0.048783187
000070 5e df ad 3b 30 68 91 bd 93 2f 97 3d 79 98 93 ba
       0.0053061685 -0.0709995 0.07382121 -0.001126065
000080 b3 94 82 3d 66 e6 1a 3c 43 11 b7 3d fe 6b 64 3d
       0.063760184 0.009454345 0.08938839 0.055767052
000090 27 5b 8c bd 53 1e ed bc af 4d 01 3d f7 46 4b bd
       -0.068533234 -0.028945124 0.031568225 -0.049628224
0000a0 ab ad a3 bd 54 e1 c4 3d 38 54 ba 3d e5 86 87 bd
       -0.07992109 0.096132904 0.09098095 -0.06617526
0000b0 94 3b cc 3c 03 75 cd 3d 2c f6 8f bd 85 bc 43 bc
       0.024930753 0.10032084 -0.070293754 -0.011946802
0000c0 56 a3 c4 bd f9 28 e3 bd 73 40 c4 3d 8e 69 54 3d
       -0.09601466 -0.11091799 0.09582605 0.051858477
0000d0 50 2d ac bd 69 c2 a8 39 56 ad 7a bd d5 a6 c8 bc
       -0.0840708 0.00032188304 -0.061200462 -0.024493614
0000e0 11 25 aa bc bc dc 3a 3d d8 4d be 3c 1f f4 9d bd
       -0.020769628 0.045620665 0.023230478 -0.07712578
0000f0 35 91 78 3d e2 6e 5e 3b d2 94 6b bd 95 d0 86 bd
       0.060685355 0.0033940603 -0.057514973 -0.065827526
000100 91 ba a8 3b 0a 16 19 3d 08 04 d6 bd e1 d8 92 bc
       0.0051491936 0.037374534 -0.10449988 -0.017925682
000110 17 dc a1 bd ed 83 fa bd 21 92 9b 3d 66 08 40 bd
       -0.07903307 -0.12232194 0.07596231 -0.04688301
000120 b6 f4 f5 bd 87 86 05 bd dd 6c 7d bd 84 44 a0 3d
       -0.120095655 -0.032599 -0.0618714 0.07825568
000130 57 73 85 bc 2a b2 85 bd c5 b6 3b bd 5f 22 9c bc
       -0.01629035 -0.06528123 -0.0458286 -0.019059358
000140 8d ed c0 3d 72 d0 ae 3c 15 49 dd bd 11 af 09 bd
       0.09420309 0.021339629 -0.10804955 -0.033614222
000150 b5 79 fe 3d 38 0b cb bd bd 22 66 bd 1f 16 ca 3d
       0.124255575 -0.09914249 -0.056185473 0.098675005
000160 c4 d9 69 bd 07 a8 c4 3d f0 4a b2 bd 8f 38 d7 3d
       -0.057092443 0.09602361 -0.087056994 0.105088346
000170 0f 01 9b 3d 9f 1a 51 bc e8 0e e0 bd 59 6f 28 bd
       0.07568561 -0.012762695 -0.10940343 -0.041121814
000180 bb 8a b1 3c fd 3d 04 bd 74 60 c3 bd 08 dd ca bd
       0.021672597 -0.03228568 -0.09539881 -0.099054396
000190 87 3c 89 3d 22 2e b3 3d 19 e7 5d bd 02 96 6b 3c
       0.06700998 0.087490335 -0.05417547 0.014379026
0001a0 0d a9 ac bd e0 40 a5 3d ac ad bf bd b4 c2 8d bd
       -0.084306814 0.080690145 -0.09359297 -0.06921902
0001b0 f7 69 30 bd a2 60 09 bd 2e 6f 25 3c 57 e6 01 be
       -0.043069806 -0.03353942 0.010097308 -0.12685524
0001c0 69 a8 5b bd a6 53 62 bd 5d b7 0e bd 35 3f 5c bc
       -0.053627405 -0.055255555 -0.034842838 -0.013442804
0001d0 2b a7 2c 3c c8 aa 60 3d b8 46 8b bd 34 87 50 b9
       0.010537903 0.05485037 -0.06800598 -0.00019886793
0001e0 f2 18 d3 3d 78 0e de 3b 7d 27 d1 bd fb 25 a1 3d
       0.10307492 0.006776627 -0.1021261 0.07868572
0001f0 a1 44 df bd 77 91 45 3d 56 06 c2 3d bb 16 09 3c
       -0.10901762 0.04823443 0.09473865 0.008367236
000200 32 f5 92 3d ed 8c bc 3d 5e cd 83 3d ca 59 e5 bc
       0.071756735 0.09206567 0.06435655 -0.027996916
000210 21 7b 10 3d 01 7a be 3d da 7e 0d 3d 8e 72 d3 bd
       0.035273675 0.09300614 0.034544803 -0.10324584
000220 69 af dd 3d 65 97 f1 3d 27 1c 9e 3d 5d 29 9c 3d
       0.108244725 0.11796454 0.077202134 0.07625077
000230 d7 77 8a 3d ae b0 8e bd d2 30 06 bd a0 d5 79 3d
       0.06761139 -0.06967293 -0.032761402 0.060994744
000240 d9 9a 19 3d b9 c4 7a 3d 44 71 39 bc 0b 14 f8 bd
       0.03750119 0.061222766 -0.011318509 -0.12113198
000250 73 9d 87 3d 79 56 96 bd 5a b2 e4 bd 88 53 eb 3d
       0.06621828 -0.07340712 -0.1116683 0.11490542
000260 d4 2a 3c 3d da fe 6f 3d 4d 5b 7d bd e5 00 57 3d
       0.04593928 0.058592655 -0.06185465 0.052491087
000270 25 9d 18 3b 30 e8 c4 3d 44 5e a4 3c 15 4a db 3d
       0.0023287025 0.09614599 0.02006448 0.107074894
000280 dd f6 1e bd cc 3d f5 3d 43 8e 01 3e 6d 5a 80 3c
       -0.038809646 0.119746774 0.12651925 0.015668118
000290 4e 8c ab bd 04 ba 76 3a f3 83 b9 3d 0d 32 a3 bd
       -0.0837637 0.0009411874 0.090583704 -0.07968531
0002a0 fb c7 5f bd 94 1c 4f 3d 9d 42 83 3c 63 d1 ed 3d
       -0.054634076 0.050564364 0.016022975 0.11612203
0002b0 bf 0b ca 3c ca 05 3f bc 93 ae ef 3b ec 3b 0f bd
       0.024663804 -0.011659095 0.007314512 -0.034969255
0002c0 a6 19 fc bd 3a 90 41 bd e0 6c ee bd f9 eb ac 3d
       -0.123095796 -0.047256686 -0.1164186 0.08443446
0002d0 dd c4 67 3c 74 74 9c 3b 04 5e ec bb e6 48 8c bd
       0.014146057 0.0047746245 -0.007213356 -0.06849842
0002e0 97 21 c5 bd b1 ad ee bc 48 17 e2 3c 8c ed 9a bd
       -0.096255474 -0.029135557 0.027598992 -0.0756484
0002f0 39 5e aa bd 3e d3 9c 3d 3d 3e 59 bd ae 92 7f 3d
       -0.08318753 0.07657479 -0.05303787 0.062395744
000300 15 93 ed 3d a5 bc fe 3d 60 71 ce bd 69 2b 1e 3b
       0.11600319 0.12438325 -0.10080218 0.0024134761
000310 d8 6a d5 bd 42 0e 57 3c dd 62 6e 3c 01 ed 51 bd
       -0.104207695 0.013125958 0.014549938 -0.051251415
000320 b7 03 26 3d 13 f2 17 bd 76 30 87 3d c8 e8 a6 bb
       0.040530887 -0.037096094 0.0660104 -0.0050936677
000330 dc 6c b6 3d c9 51 a8 3d 1b 75 c1 3c 87 29 a8 3c
       0.08907482 0.08218724 0.02361541 0.020527614
000340 3e 56 72 bd 3d 9e b5 bd 2f 27 bf 3d 9d 2e ac 3d
       -0.05916428 -0.08868072 0.093336456 0.08407328
000350 bb db 81 3c 4e 3b cf 3d 9d 4a 95 3d 3e d3 b7 3d
       0.015851846 0.10118733 0.07289622 0.08975838
000360 ec 2a 7d bc 60 5c a5 3c 30 48 d8 bd 39 83 f1 bd
       -0.015452128 0.02018565 -0.10560644 -0.11792607
000370 b8 66 89 3d cc 0a b0 bd 01 a0 b9 3d e3 1a c7 bd
       0.06709045 -0.08595809 0.090637214 -0.09721925
000380 3a db c0 bd 80 1f d7 bd 27 bf 9e 3d 3a b7 ad bd
       -0.09416814 -0.10504055 0.07751303 -0.08482213
000390 82 b7 de bd cb ec 53 3d 28 ac 81 bc 41 74 f9 bd
       -0.10874845 0.051739495 -0.01582916 -0.12180377
0003a0 aa 60 c9 3d dc 4c b2 3d 83 09 dd 3d 81 77 a2 3d
       0.0983289 0.08706066 0.1079283 0.0793295
0003b0 62 7e cd bd 3f b0 35 bd 1d bf 2a bd ee 7b e9 bd
       -0.10033871 -0.044357534 -0.041686166 -0.11400591
0003c0 df 93 c1 3d 99 32 69 bd 59 3d 3d 3d c7 83 6c bd
       0.09452032 -0.05693302 0.046201084 -0.05774286
0003d0 5f 31 e0 3d e8 1e c7 3d 31 31 ad 3d 9e 9b 85 3d
       0.10946917 0.09722692 0.08456648 0.06523822
0003e0 c2 43 e5 3d 01 80 4e 3d 62 92 ff 3c cb 12 a4 bc
       0.111945644 0.050415043 0.03119773 -0.020028492
0003f0 5b e0 d7 3d e1 bb e3 bd e2 08 c9 3d 61 f4 a1 bb
       0.10540839 -0.111198194 0.098161474 -0.0049424623

main.8.bias f4 [32]
000000 a2 52 cd 3d 22 6f 9b 3c 5a c4 32 bd 18 26 e0 3d
       0.100255266 0.01897389 -0.043644287 0.10944766
000010 34 b2 51 bd ae 82 87 bb c4 83 35 bd c2 44 88 bd
       -0.05119534 -0.0041354513 -0.044315115 -0.066537395
000020 1b 99 be bd 55 fa 03 3e 75 ca d3 3d 7f 7d 77 3d
       -0.09306546 0.12888463 0.1034135 0.060422417
000030 10 be 4d bd 2f e0 18 bd 3a 99 94 3d fc c2 c4 3d
       -0.050230086 -0.037323173 0.07255788 0.09607503
000040 9c a1 fb 3d da 1b 80 3d 13 11 49 bd c2 12 81 bd
       0.12286684 0.06255312 -0.04908855 -0.06302406
000050 f3 db 01 3e 2e 34 b0 bd d6 8e cb bd 11 73 26 bc
       0.1268156 -0.086037025 -0.09939353 -0.01015927
000060 26 10 d4 bc dc d2 52 3d 49 35 c1 bd 45 14 d7 bc
       -0.025886606 0.051470622 -0.094339915 -0.026254782
000070 33 ef c3 bd 3e 3b ae 3d d9 e0 a0 3c b5 7c 86 bd
       -0.09567108 0.08507393 0.019638466 -0.06566755

main.9.weight f4 [32]
000000 19 27 80 3f 9e 7a 80 3f 41 18 81 3f 81 79 80 3f
       1.0011932 1.003742 1.0085527 1.003708
000010 7a 15 81 3f 3a fd 80 3f 22 9d 7d 3f a2 07 81 3f
       1.0084679 1.0077279 0.9906789 1.0080454
000020 ff 31 81 3f a6 55 81 3f 99 09 7f 3f 0f 6d 80 3f
       1.0093383 1.0104263 0.9962402 1.0033282
000030 e4 5f 7d 3f 8b 0c 81 3f ff 3c 81 3f a3 2f 81 3f
       0.9897444 1.0081953 1.009674 1.0092663
000040 19 bf 7d 3f ad 88 81 3f 16 d7 7f 3f 87 62 7f 3f
       0.99119717 1.0119835 0.9993757 0.99759716
000050 9d 42 81 3f ee 16 7f 3f 02 75 81 3f a9 12 81 3f
       1.0098454 0.9964436 1.0113833 1.008382
000060 d5 14 7f 3f 08 69 7e 3f 19 7b 7e 3f 15 47 81 3f
       0.9964116 0.99379015 0.9940658 1.0099818
000070 5a cc 7f 3f 6f e1 7f 3f e6 1d 7e 3f 4a b7 7e 3f
       0.9992119 0.9995336 0.9926437 0.99498427

main.9.bias f4 [32]
000000 6b 78 1b bb 52 7e 26 3c b7 e2 c4 3b 3c 14 68 3a
       -0.0023722898 0.010161953 0.006008472 0.0008853113
000010 df 4f 1f 3b c8 04 fd 3b a7 49 fc bb 6e 6c d1 3b
       0.0024309081 0.0077215172 -0.0076992097 0.0063910997
000020 09 b8 fe 3b b3 aa 22 3c b6 3e 86 bb be 71 c5 ba
       0.0077734035 0.009928393 -0.004096831 -0.0015063805
000030 b6 04 b1 bb 59 a8 04 3c b8 2a e5 3b b4 d4 fb 3b
       -0.005402173 0.008096778 0.006993618 0.0076852683
000040 e7 69 05 bb ea e8 04 3c 26 14 26 bb 41 1e a9 bb
       -0.0020357312 0.008112172 -0.00253416 -0.0051610772
000050 63 3b ed 3b 45 a4 16 3b 8a de be 3b e0 13 7d 3b
       0.0072397455 0.0022986096 0.0058248686 0.0038616583
000060 5f 39 a1 bb b3 37 db bb 7b 26 cf bb f7 7e f1 3b
       -0.0049201692 -0.0066899895 -0.006321726 0.0073698717
000070 a5 5c 8c ba f6 91 b7 3b 08 44 c4 bb b2 a0 2d 3b
       -0.0010708763 0.0056021167 -0.0059895553 0.0026493487

main.11.weight f4 [1, 32]
000000 19 37 49 bd d2 3b ec 3d c3 3c 18 3e 31 53 2a be
       -0.04912481 0.11534847 0.14866929 -0.16633298
000010 78 e4 e3 bd c0 4e 1b 3d b5 79 10 3d c0 fb f5 bd
       -0.11127561 0.0379169 0.03527232 -0.12010908
000020 9a 15 9d 3d 33 98 9a 3c 56 5b c1 bd 6d eb 0d be
       0.07670136 0.018871402 -0.09441249 -0.13859339
000030 39 2b 82 ba c9 fb 81 3d 01 aa b8 3d 75 19 9b 3d
       -0.0009931094 0.06346852 0.09016801 0.07573215
000040 f1 99 ec 3d d6 b0 2d 3e c3 22 d9 bd d2 a1 77 bd
       0.115527995 0.16961989 -0.106023334 -0.06045706
000050 56 15 22 be 8f 69 09 3e c9 ec 37 be 8e 50 c0 bd
       -0.15828452 0.13419174 -0.1796142 -0.093903646
000060 88 4c 20 be 1e 27 b0 bc 53 39 82 bd 5a 82 e8 3d
       -0.15654194 -0.021503028 -0.0635859 0.113529876
000070 6e c5 11 be 3b 78 d9 3d 12 0c 71 bd a1 60 ee 3c
       -0.1423547 0.10618635 -0.0588494 0.02909881
