models/trained_model_NB1.pt (torch, 64769 bytes, 14 tensors)

main.0.weight f4 [128, 30]
-0.05674596 0.07958027 -0.090690926 -0.035181474 0.12803741 0.034843355 -0.0536186 -0.076893754
-0.20133229 -0.023392648 0.09500918 0.13432598 0.02593713 0.12177151 -0.0840836 0.025941541
4.9646278e-05 0.17324199 0.100568905 0.01664776 -0.012874027 0.05520324 -0.1420855 0.14691676
0.06595881 0.11261558 -0.041854665 -0.082282856 -0.11856848 0.11162195 0.09894246 -0.12712
0.053792596 -0.16553712 0.09585456 -0.15446058 -0.19648543 -0.01833916 -0.049837288 0.18554486
0.13188407 -0.032121886 0.01309728 0.16488749 -0.017432503 0.034207776 0.041787732 0.14870179
-0.07984615 -0.10105353 -0.09640034 0.11748141 -0.042338435 0.08407933 0.07479389 -0.034299847
0.0556596 -0.14979854 0.06937303 -0.0005013025 0.019339627 -0.12839435 -0.08745404 -0.14264053
-0.12985957 0.08485707 0.16720842 -0.08339266 0.010413309 -0.15971932 -0.14262839 -0.09079435
-0.056721386 -0.11509768 0.16040115 -0.16799551 0.06823084 0.117168844 -0.008511538 0.09790296
-0.05376785 -0.0566659 0.1398116 -0.16522758 0.07078677 -0.015861813 -0.025745045 -0.07431926
0.122299105 0.00012760072 0.028390408 -0.16653359 -0.047508672 -0.07056706 0.006671197 -0.13398375
0.1285344 -0.1073256 0.06729758 -0.13012967 -0.13425936 -0.024051307 -0.16144754 -0.06731828
0.09361353 0.05645949 0.035936266 -0.09485918 0.011180696 0.12738536 0.03427657 -0.049874403
0.014494705 0.1619935 0.118773825 -0.06180972 0.045809112 -0.055308815 0.10157881 0.0694472
0.036879383 0.17852454 0.078873865 0.13085905 0.08190534 -0.024890818 0.0389557 -0.14997786
-0.07177051 -0.06839337 -0.11798712 -0.15591651 0.19449155 0.051063403 0.11186994 0.0961647
-0.03779431 0.07055762 -0.12420234 -0.0066790176 0.011062048 0.13388625 -0.1598495 -0.06318374
0.09026073 -0.035197884 -0.10027874 -0.16871515 -0.16837427 0.10353892 0.060725722 -0.09346185
0.062372863 0.035980448 -0.08014348 -0.054015413 0.06551573 -0.18455467 0.18507557 0.07018121
-0.03366404 -0.16416438 0.12125544 -0.1478559 -0.15330233 -0.12305274 0.15569156 -0.08788051
-0.16656505 -0.14995995 -0.0043599405 0.13296108 0.010083637 0.113000475 -0.063904256 0.10841301
-0.11325877 -0.047483947 -0.12950611 0.06132409 0.11257811 -0.043047987 0.1822326 0.16583838
0.15289275 0.1633477 0.09736703 0.04735453 -0.17523131 -0.18053673 -0.11919609 -0.017195288
0.13245222 0.023408802 0.025966272 0.08033325 -0.15310813 -0.06147289 -0.040732846 -0.13536815
-0.16655138 -0.04155163 0.06837574 0.011399319 0.1619474 -0.119048856 0.06896782 -0.03045331
0.13541594 -0.18685488 0.16945948 0.11435041 -0.09063096 -0.035761192 0.16968192 0.14590874
-0.13299018 0.11472051 0.10495157 0.121170186 0.07810787 0.051219188 -0.08467936 0.1431267
0.16499072 -0.07363232 -0.1542481 -0.056247354 0.16992326 0.08704518 0.13274327 0.14294857
-0.12645456 0.044390462 -0.12986018 0.012621645 0.07537923 0.0037490996 -0.12516263 0.112731464
-0.17964223 -0.041866858 0.05232754 -0.122172564 0.1339227 -0.031259812 0.0607666 0.16356651
0.12797758 -0.16918904 0.05062295 -0.043244135 0.10336519 -0.04346457 -0.11481877 0.06824438
00000000: 746e 68bd fbfa a23d 2abc b9bd 731a 10bd
00000010: 3d1c 033e e8b7 0e3d 2d9f 5bbd 797a 9dbd
00000020: 0d2a 4ebe f0a1 bfbc 2c94 c23d c08c 093e
00000030: 1b7a d43c 5763 f93d 0634 acbd 5b83 d43c
00000040: 493b 5038 5966 313e 12f7 cd3d e260 883c
00000050: 95ed 52bc cb1c 623d dc7e 11be 5971 163e
00000060: 6a15 873d ffa2 e63d cc6f 2bbd ea83 a8bd
00000070: 08d4 f2bd 0d9a e43d 58a2 ca3d bf2b 02be
00000080: a055 5c3d 9082 29be 654f c43d ea2a 1ebe
00000090: 7a33 49be 023c 96bc 2f22 4cbd 79ff 3d3e
000000a0: 9e0c 073e 3d92 03bd f995 563c 44d8 283e
000000b0: 9cce 8ebc 741d 0c3d 9d29 2b3d 4845 183e
000000c0: 6186 a3bd 27f5 cebd 8b6d c5bd 189a f03d
000000d0: 116b 2dbd c931 ac3d 8a2d 993d ff7d 0cbd
000000e0: 52fb 633d ca64 19be 7213 8e3d d769 03ba
000000f0: 236e 9e3c cf79 03be 1b1b b3bd 5c10 12be
00000100: e8f9 04be 8bc9 ad3d af38 2b3e c5c9 aabd
00000110: 959c 2a3c 768d 23be 2d0d 12be 63f2 b9bd
00000120: af54 68bd 55b8 ebbd 3340 243e 0407 2cbe
00000130: 9cbc 8b3d 38f6 ef3d fa73 0bbc 5981 c83d
00000140: ad3b 5cbd 811a 68bd c62a 0f3e 6b31 29be
00000150: a7f8 903d a2f0 81bc 46e7 d2bc b234 98bd
00000160: f477 fa3d 8fcc 0539 0093 e83c c887 2abe
00000170: 7498 42bd 7685 90bd 0e9a da3b 0933 09be
00000180: 869e 033e 86cd dbbd 50d3 893d b640 05be
00000190: 497b 09be 3f07 c5bc 8152 25be 2bde 89bd
000001a0: 73b8 bf3d 1142 673d e831 133d 8845 c2bd
000001b0: 3d2f 373c 4f71 023e 9765 0c3d 1a49 4cbd
000001c0: 337b 6d3c a0e1 253e b13f f33d 302c 7dbd
000001d0: 56a2 3b3d 7f8b 62bd 8d08 d03d 553a 8e3d
000001e0: d60e 173d 23cf 363e 9f88 a13d eaff 053e
000001f0: fdbd a73d d4e7 cbbc 0390 1f3d cc93 19be
00000200: 6bfc 92bd d311 8cbd 3ba3 f1bd 94a8 1fbe
00000210: cb28 473e dc27 513d 111c e53d 00f2 c43d
00000220: 35ce 1abd 8380 903d cc5d febd a9db dabb
00000230: 983d 353c 7a19 093e 96af 23be 7a66 81bd
00000240: 9eda b83d a82b 10bd f15e cdbd aac3 2cbe
00000250: 4e6a 2cbe 370c d43d 89bb 783d ed68 bfbd
00000260: b07a 7f3d 3c60 133d 4422 a4bd 443f 5dbd
00000270: 1c2d 863d e6fb 3cbe 7384 3d3e 2bbb 8f3d
00000280: 4ee3 09bd b51a 28be c654 f83d 8967 17be
00000290: 49fb 1cbe 1303 fcbd 9c6d 1f3e b2fa b3bd
000002a0: 0790 2abe 1a8f 19be d5dd 8ebb f326 083e
000002b0: d735 253c cb6c e73d 3ce0 82bd a407 de3d
000002c0: 37f4 e7bd 877e 42bd 409d 04be f82e 7b3d
000002d0: 5a8f e63d 1653 30bd 2f9b 3a3e 89d1 293e
000002e0: eb8f 1c3e 9f44 273e 5e68 c73d d3f6 413d
000002f0: d66f 33be 9fde 38be 141d f4bd 22dd 8cbc
00000300: 8ea1 073e d1c3 bf3c 38b7 d43c c285 a43d
00000310: 61c8 1cbe ffca 7bbd 7cd7 26bd f39d 0abe
00000320: 728c 2abe 0b32 2abd 9408 8c3d 36c4 3a3c
00000330: 8ad5 253e e3cf f3bd 003f 8d3d 3879 f9bc
00000340: 7aaa 0a3e e356 3fbe c986 2d3e 8c30 ea3d
00000350: ba9c b9bd 547a 12bd 19c1 2d3e 1a69 153e
00000360: 942e 08be 96f2 ea3d d9f0 d63d 1328 f83d
00000370: 05f7 9f3d 36cb 513d 5f6c adbd ce8f 123e
00000380: 54f3 283e 8bcc 96bd 37f3 1dbe a063 66bd
00000390: 5d00 2e3e be44 b23d daed 073e 1c61 123e
000003a0: 4e7d 01be c6d2 353d 11fa 04be 04cb 4e3c
000003b0: 6d60 9a3d 74b3 753b a22a 00be c1df e63d
000003c0: 22f4 37be 957c 2bbd 6755 563d 9c35 fabd
000003d0: 0823 093e 4a0a 00bd 66e6 783d fb7d 273e
000003e0: 8e0c 033e e43f 2dbe 035a 4f3d c320 31bd
000003f0: 21b1 d33d e807 32bd 1a26 ebbd b6c3 8b3d

main.0.bias f4 [128]
-0.04676889 0.0019981174 -0.060714256 -0.01654514 0.1801559 -0.06849273 0.1406943 -0.00019652264
0.07362968 0.10081402 -0.025276894 0.08498092 -0.0063678045 -0.08716518 -0.08680242 -0.053953353
0.14170884 -0.13502522 0.07718766 0.08447839 0.11619201 0.14907625 -0.04035992 -0.046837505
-0.17090745 0.1004805 -0.15742731 0.111153714 0.14778349 0.15809265 0.049953055 0.16021298
0.17507012 0.012574696 0.16195166 0.07846222 -0.11293592 0.15827538 0.071251966 0.1143211
-0.19985963 -0.14115989 0.109480545 -0.070764445 0.016343594 0.15380792 0.16965742 0.17679866
0.19176044 -0.19461524 -0.10061929 0.1495723 -0.13979043 0.16058797 -0.13122661 -0.16191693
0.16858377 0.12666588 0.044195697 0.07749738 -0.14605571 0.031870633 0.006733545 0.11370536
0.0035206513 -0.08321851 0.18443578 0.05577878 0.16275898 0.10573783 0.0387126 0.1028726
0.07182423 0.101642795 0.11494382 -0.14489539 -0.14180717 0.024419816 0.06651309 -0.105855316
0.17918606 -0.08469792 0.054848146 -0.042945534 -0.12514824 0.07455431 -0.094620496 -0.09713562
0.059459675 0.172046 -0.016920885 0.03250889 -0.050125897 -0.05444087 0.080741696 0.15498957
0.092647225 0.12558654 -0.15919544 -0.06612925 -0.15823904 0.17946884 -0.08768639 -0.11194821
0.15459469 -0.18010834 0.10502764 0.16909629 -0.017822227 0.102719836 -0.068783194 0.13268943
0.053632963 -0.094746865 0.035495963 -0.050678782 -0.13235013 -0.1747003 -0.02322082 0.19716454
0.16072577 0.09830853 0.02415313 0.14326754 -0.18339054 -0.09128556 0.08091471 0.15318847
00000000: bc90 3fbd d9f2 023b 83af 78bd ac89 87bc
00000010: ca7a 383e eb45 8cbd 2b12 103e a511 4eb9
00000020: 28cb 963d 9577 ce3d 7d11 cfbc 7a0a ae3d
00000030: 04a9 d0bb a883 b2bd 78c5 b1bd 31fe 5cbd
00000040: 1f1c 113e 0d44 0abe 9014 9e3d 0203 ad3d
00000050: 14f6 ed3d 72a7 183e 7250 25bd afd8 3fbd
00000060: 5d02 2fbe b8c8 cd3d a034 21be 8fa4 e33d
00000070: 8e54 173e 0ae3 213e 939b 4c3d df0e 243e
00000080: 9545 333e 1906 4e3c a8d6 253e cdb0 a03d
00000090: f34a e7bd f112 223e 8dec 913d 2e21 ea3d
000000a0: 01a8 4cbe 388c 10be 5637 e03d f3ec 90bd
000000b0: 00e3 853c d37f 1d3e adba 2d3e b50a 353e
000000c0: d95c 443e 3849 47be 7c11 cebd 7b29 193e
000000d0: 3925 0fbe 2c71 243e 4560 06be 8dcd 25be
000000e0: 39a1 2c3e b3b4 013e 8c06 353d f2b6 9e3d
000000f0: a18f 15be c88a 023d 12a5 dc3b 5bde e83d
00000100: baba 663b 776e aabd bcdc 3c3e 4a78 643d
00000110: 4aaa 263e 138d d83d 1a91 1e3d dfae d23d
00000120: 9518 933d 192a d03d aa67 eb3d 755f 14be
00000130: e635 11be 110c c83c 0438 883d acca d8bd
00000140: 8d7c 373e 1a76 adbd 73a8 603d a8e7 2fbd
00000150: dc26 00be eeaf 983d 64c8 c1bd 0aef c6bd
00000160: fd8b 733d d42c 303e ab9d 8abc 0b28 053d
00000170: d050 4dbd 64fd 5ebd e75b a53d 96b5 1e3e
00000180: d4bd bd3d c299 003e 2104 23be c66e 87bd
00000190: 6a09 22be aec6 373e ec94 b3bd 1a45 e5bd
000001a0: 124e 1e3e 526e 38be bb18 d73d 9427 2d3e
000001b0: ebff 91bc c75e d23d 34de 8cbd bddf 073e
000001c0: 3dae 5b3d a50a c2bd 3764 113d 8e94 4fbd
000001d0: cb86 07be a3e4 32be 9739 bebc 80e5 493e
000001e0: 4c95 243e fc55 c93d c9dc c53c bab4 123e
000001f0: bbca 3bbe ecf3 babd 9db6 a53d 70dd 1c3e

main.1.weight f4 [128]
1.0025218 1.0128863 0.9881031 0.9987322 1.0146009 1.011778 1.0031714 0.9918516
1.0081432 0.9883638 0.98681045 0.9900638 0.9911722 0.99002534 1.0027009 1.0077828
1.0080113 1.0058285 1.0060257 1.010523 0.9824978 1.0014615 1.0156127 0.98303103
1.0088725 1.0086135 0.9967095 1.009916 0.9807306 0.99514693 0.99284846 1.0198213
1.0110854 0.99168336 1.0027065 1.0069903 1.0183003 0.99438274 1.0134124 1.0015785
1.0072535 0.9983857 0.9990419 0.9944942 1.0094267 0.9938029 0.99572015 0.99075955
1.0113641 1.0092254 0.9991721 1.0190196 0.9910771 0.9964987 0.9917087 0.99189264
1.0027645 0.99012977 0.99571544 1.0092502 1.0106299 1.014062 1.001977 1.0062144
1.013831 0.9866108 1.013616 1.0107154 0.9831237 0.99635196 0.9882775 0.9867557
0.9880588 1.020805 0.9948191 1.0098476 1.0081633 1.0136632 1.0067322 0.9947587
1.0225353 1.0135955 1.011352 0.99109894 1.0124785 0.9928731 1.006245 0.99125856
1.0088052 0.9869512 0.99160826 1.008201 0.9927503 1.0065659 1.0089495 0.9868345
1.0016905 0.99746466 0.9966798 0.99732393 1.0060537 0.99230313 0.9942152 0.98862565
0.9868774 1.0114305 0.98411393 0.9933727 0.9914796 1.0069666 0.99798167 1.0084426
0.9910406 1.0031437 1.0158378 0.99037254 1.0097218 1.0009347 0.99264735 1.0124128
0.99676454 0.9964659 0.9924929 0.9993125 0.99196196 0.9890047 0.99700296 1.0058055
00000000: a252 803f 42a6 813f 53f4 7c3f eaac 7f3f
00000010: 71de 813f f181 813f ec67 803f fde9 7d3f
00000020: d60a 813f 6905 7d3f 9c9f 7c3f d274 7d3f
00000030: 76bd 7d3f 4d72 7d3f 8158 803f 07ff 803f
00000040: 8406 813f fdbe 803f 73c5 803f d158 813f
00000050: fa84 7b3f e42f 803f 99ff 813f eca7 7b3f
00000060: bc22 813f 3f1a 813f 5b28 7f3f ed44 813f
00000070: 2911 7b3f f3c1 7e3f 512b 7e3f 8189 823f
00000080: 3f6b 813f f6de 7d3f b058 803f 0fe5 803f
00000090: aa57 823f de8f 7e3f 7fb7 813f b933 803f
000000a0: afed 803f 3596 7f3f 36c1 7f3f 2c97 7e3f
000000b0: e534 813f de69 7e3f 84e7 7e3f 6ba2 7d3f
000000c0: 6174 813f 4c2e 813f bec9 7f3f 3c6f 823f
000000d0: 3bb7 7d3f 8a1a 7f3f 9fe0 7d3f adec 7d3f
000000e0: 965a 803f 2579 7d3f 35e7 7e3f 1c2f 813f
000000f0: 525c 813f c9cc 813f c840 803f a2cb 803f
00000100: 37c5 813f 8692 7c3f 2bbe 813f 1f5f 813f
00000110: ffad 7b3f ec10 7f3f c1ff 7c3f 069c 7c3f
00000120: 6cf1 7c3f bda9 823f 77ac 7e3f b042 813f
00000130: 7f0b 813f b7bf 813f 9adc 803f 82a8 7e3f
00000140: 70e2 823f 7fbd 813f fb73 813f a9b8 7d3f
00000150: e598 813f ee2c 7e3f a3cc 803f 1fc3 7d3f
00000160: 8720 813f d5a8 7c3f 0ada 7d3f bb0c 813f
00000170: e224 7e3f 27d7 803f 4225 813f 30a1 7c3f
00000180: 6537 803f d859 7f3f 6826 7f3f 9f50 7f3f
00000190: 5ec6 803f 9407 7e3f e384 7e3f 9216 7d3f
000001a0: ffa3 7c3f 8e76 813f e4ee 7b3f ac4d 7e3f
000001b0: 9bd1 7d3f 48e4 803f ba7b 7f3f a614 813f
000001c0: d6b4 7d3f 0367 803f f906 823f 0e89 7d3f
000001d0: 903e 813f a11e 803f 231e 7e3f be96 813f
000001e0: f62b 7f3f 6418 7f3f 0414 7e3f f2d2 7f3f
000001f0: 38f1 7d3f 692f 7d3f 963b 7f3f 3cbe 803f

main.1.bias f4 [128]
-0.0056865425 0.01288084 -0.011511433 -0.018273253 0.012257475 0.011074914 0.0074563418 -0.0052622273
0.008759987 -0.011667118 -0.011520116 -0.01578259 -0.0051837782 -0.007264028 0.0034122586 0.012676984
0.00933153 0.001060826 -0.00253617 0.0144357495 -0.016220558 0.003627445 -0.009181295 -0.016289415
0.008043537 0.012449931 0.0020348004 -0.0018027568 -0.0070709297 -0.0010032932 -0.00821851 0.013619875
0.009175044 0.00059481326 -0.00810744 0.0124348 0.016169693 -0.011000069 0.010468716 -0.008384612
0.004466199 -0.010535953 0.008947447 -0.0035089348 0.0028788603 -0.0076350695 -0.0054410473 -0.0029687039
0.006113805 -0.0016351759 0.0067024752 0.01709255 0.00488972 -0.0063852835 -0.0064871656 -0.0034652366
0.0052174935 -0.010484491 -9.2276314e-05 0.0051874747 0.01654804 0.0031781518 0.003930929 0.010703455
0.012166655 -0.009893637 0.009124772 0.009396798 -0.003950652 -0.006252113 -0.007003982 -0.01609484
-0.01168585 0.020425279 0.00092417916 0.009611641 0.012271056 0.019094665 0.00021488345 0.0034058401
0.021726413 0.013866433 0.010146846 -0.0082791755 0.013906482 -0.007998951 -0.0031788002 -0.012485511
0.0061810585 0.0012121021 -0.011682261 0.012191976 -0.00876538 0.00797056 0.012694322 -0.013247261
0.0015567966 0.00025072313 0.0006902404 -0.006145714 0.014399628 -0.012269142 -0.0033900489 -0.011848643
-0.010216245 -0.0009556561 -0.0070426986 -0.0018612494 -0.0075687584 0.008311105 0.004744219 0.008164876
0.0035248222 -0.008236307 0.0027671843 -0.0086287195 0.009771276 0.0021036633 0.0026429575 0.0106260115
-0.001253982 -0.007295167 -0.006794495 0.008903004 -0.0075848345 -0.0108108185 -0.0067566703 0.010287575
00000000: 2d56 babb 290a 533c 739a 3cbc cab1 95bc
00000010: 94d3 483c 8e73 353c 5454 f43b c36e acbb
00000020: 0c86 0f3c 7127 3fbc debe 3cbc 7d4a 81bc
00000030: afdc a9bb 1507 eebb 33a0 5f3b 20b3 4f3c
00000040: 46e3 183c 6a0b 8b3a df35 26bb ec83 6c3c
00000050: fae0 84bc 6eba 6d3b 246d 16bc 6171 85bc
00000060: 0ac9 033c ccfa 4b3c 495a 053b 7b4a ecba
00000070: 42b3 e7bb ef80 83ba eea6 06bc e525 5f3c
00000080: ec52 163c 3eed 1b3a 11d5 04bc 55bb 4b3c
00000090: 4e76 843c a239 34bc fa84 2b3c 9d5f 09bc
000000a0: 3159 923b fd9e 2cbc 5098 123c 28f6 65bb
000000b0: 43ab 3c3b 9b2f fabb d04a b2bb 968e 42bb
000000c0: 5056 c83b 6653 d6ba 70a0 db3b ad05 8c3c
000000d0: f239 a03b a43b d1bb 4a92 d4bb 0619 63bb
000000e0: 82f7 aa3b 24c7 2bbc 7884 c1b8 b1fb a93b
000000f0: c18f 873c 8a48 503b 06cf 803b 8b5d 2f3c
00000100: a656 473c ec18 22bc 1180 153c 07f5 193c
00000110: 7974 81bb 86de ccbb a981 e5bb 53d9 83bc
00000120: 0276 3fbc ea52 a73c 9d44 723a 257a 1d3c
00000130: 8a0c 493c 6a6c 9c3c 5652 6139 8434 5f3b
00000140: 97fb b13c 0930 633c f53e 263c 61a5 07bc
00000150: 03d8 633c 080e 03bc 6b53 50bb 0790 4cbc
00000160: 7a8a ca3b 66df 9e3a f466 3fbc dbc0 473c
00000170: ab9c 0fbc f496 023c d8fb 4f3c 0a0b 59bc
00000180: 6d0d cc3a 7d73 8339 40f1 343a fc61 c9bb
00000190: 6bec 6b3c 8304 49bc 952b 5ebb d020 42bc
000001a0: 0a62 27bc ff84 7aba 70c6 e6bb 2bf5 f3ba
000001b0: 5903 f8bb 4d2b 083c 6575 9b3b f9c5 053c
000001c0: b400 673b 93f1 06bc a659 353b 795f 0dbc
000001d0: b417 203c 9ddd 093b 7835 2d3b b918 2e3c
000001e0: a75c a4ba 4c0c efbb 5ba4 debb e8dd 113c
000001f0: 348a f8bb dc1f 31bc 0f67 ddbb 388d 283c

main.4.weight f4 [64, 128]
-0.073298045 0.08247764 -0.0015335842 -0.008517049 0.062114786 0.05213918 -0.074130006 0.035433233
-0.04107762 0.020952083 -0.04445936 -0.01731671 -0.057376374 0.046226446 0.06718254 -0.017730022
-0.03675857 -0.07782707 -0.027740473 0.089071564 0.062693045 0.04673358 -0.045701344 0.067485906
-0.05990494 -0.039913166 0.013867083 -0.014034894 0.034518164 0.0783328 -0.054724574 0.06268822
0.07563555 -0.07846553 -0.056909144 -0.06282721 0.07875566 0.062337656 0.023203205 -0.028984008
-0.027024139 -0.025916392 0.07174716 0.02936999 0.07748775 0.06346656 -0.03254084 0.030852467
0.057636924 -0.062388282 0.02902063 -0.0015757835 -0.06426318 0.0073078447 -0.05085222 -0.019283002
-0.07023174 -0.08542967 0.061104756 0.049097124 0.05313833 -0.029948652 0.039804175 -0.033497337
-0.06691688 0.03579916 0.041269056 0.040415093 0.055172924 -0.05392806 -0.06300757 0.01627255
0.01325804 0.003013782 -0.06513691 0.028975308 -0.06522109 0.017706005 0.0104275495 0.07864219
0.07921049 0.003471768 0.05475312 0.08390719 -0.03463244 0.013496987 -0.03428463 -0.041048564
-0.03158924 -0.0740346 0.028130773 0.06797122 0.038174592 -0.006894599 0.023984956 -0.03612916
-0.05961999 -0.058974102 -0.072156675 0.02364905 0.009080792 0.08619654 -0.04260086 -0.026069526
0.02746325 -0.06149123 -0.030017328 0.032985087 -0.053253 0.07479888 0.041051313 -0.010120456
0.034237236 0.06819151 0.010473907 0.08136105 0.00087454077 0.09082341 -0.009153926 0.042802457
0.0034560876 0.10679315 0.010674639 0.0106971795 -0.0045089745 0.0750081 0.063318595 -0.037969153
-0.040538747 -0.01657262 -0.016241848 -0.074937776 0.026764669 -0.03987683 -0.08308941 -0.068404056
-0.03516991 0.04334375 0.022916593 0.065465026 -0.052431352 -0.09337558 -0.0007316897 -0.027533367
-0.0530274 0.08326757 0.038078982 -0.08902639 0.0437085 -0.072977655 -0.044655304 0.025888333
0.08125179 -0.05243448 -0.026737556 0.02215876 -0.07008763 -0.016854547 0.074854285 -0.025611779
-0.08780314 0.047026835 0.04906194 0.03474203 -0.07812515 0.06927569 0.0022528786 0.046232376
-0.008694183 -0.06299604 0.06430717 0.028759452 -0.015693225 -0.056733254 0.042255826 -0.045370225
-0.025150817 0.031175176 -0.062189624 0.0024495332 -0.00953528 0.030414665 -0.040706974 -0.031334467
-0.07521012 -0.06327701 0.080940545 0.03317415 0.051253248 -0.039329838 0.028213762 -0.055210177
0.004678864 -0.060741898 0.041942544 -0.07353689 0.04998286 0.0012865391 -0.021978155 -0.049903505
-0.08681249 0.03578017 -0.07007336 0.055384476 0.04654352 -0.09343309 -0.05099123 0.022526208
0.06863147 -0.07420823 -0.086322285 -0.04341401 0.01667058 -0.06471708 0.06623862 -0.03515018
0.03683351 -0.055118542 0.019806795 0.083852716 -0.016876785 -0.073350556 0.0028177006 0.024605306
-0.042364217 0.002470289 0.083036594 -0.06392841 -0.052750975 0.07221221 0.017940842 0.059968494
-0.037089087 0.08079254 -0.061337486 -0.00692917 0.06561626 0.067002945 0.05970158 0.0107194055
0.038572185 0.06525306 0.0396249 -0.048652638 -0.031504307 0.03691146 0.07063362 0.0742525
0.033587057 -0.032058172 -0.029131154 0.050770964 -0.055695087 0.03303799 -0.094951525 0.065642186
00000000: 491d 96bd 09ea a83d 8c02 c9ba 188b 0bbc
00000010: 136c 7e3d e58f 553d 79d1 97bd 7022 113d
00000020: 0241 28bd b4a3 ab3c 051b 36bd c6db 8dbc
00000030: 7d03 6bbd f157 3d3d 0097 893d 8d3e 91bc
00000040: 2790 16bd cd63 9fbd fd3f e3bc 276b b63d
00000050: 3665 803d b66b 3f3d 5531 3bbd 0d36 8a3d
00000060: e25e 75bd fd7b 23bd c332 633c 9df2 65bc
00000070: eb62 0d3d f26c a03d e026 60bd ae62 803d
00000080: d0e6 9a3d 89b2 a0bd 9019 69bd 8dab 80bd
00000090: a64a a13d c555 7f3d a614 be3c df6f edbc
000000a0: ba61 ddbc 9d4e d4bc 2df0 923d 5599 f03c
000000b0: e6b1 9e3d c1fa 813d 8b49 05bd 50be fc3c
000000c0: b214 6c3d db8a 7fbd acbc ed3c 858a ceba
000000d0: 6a9c 83bd a576 ef3b 6b4a 50bd 63f7 9dbc
000000e0: a9d5 8fbd c0f5 aebd fb48 7a3d 111a 493d
000000f0: 94a7 593d e056 f5bc b409 233d 8134 09bd
00000100: b80b 89bd 24a2 123d be09 293d 4c8a 253d
00000110: 01fd 613d abe3 5cbd 1d0a 81bd 034e 853c
00000120: 4038 593c df82 453b 8066 85bd a05d ed3c
00000130: a392 85bd 2f0c 913c 50d8 2a3c 280f a13d
00000140: 1c39 a23d 9a86 633b cf44 603d 88d7 ab3d
00000150: bfda 0dbd 7722 5d3c 0a6e 0cbd 8a22 28bd
00000160: b863 01bd 749f 97bd 8272 e63c 7f34 8b3d
00000170: f65c 1c3d 17ec e1bb 197c c43c 2cfc 13bd
00000180: 1734 74bd d48e 71bd e1c6 93bd a7bb c13c
00000190: 9ac7 143c d087 b03d 3d7e 2ebd c28f d5bc
000001a0: 9cfa e03c 3ade 7bbd e6e6 f5bc 5f1b 073d
000001b0: d11f 5abd 2830 993d 6c25 283d 45d0 25bc
000001c0: 583c 0c3d fea7 8b3d c09a 2b3c 9fa0 a63d
000001d0: 7041 653a a001 ba3d 59fa 15bc a151 2f3d
000001e0: 877f 623b 5eb6 da3d aee4 2e3c 3943 2f3c
000001f0: 05c0 93bb d99d 993d 2ead 813d 8b85 1bbd
00000200: f50b 26bd 4ec3 87bc a00d 85bc fa78 99bd
00000210: 9441 db3c e355 23bd c82a aabd 6d17 8cbd
00000220: 530e 10bd 3789 313d 94bb bb3c 8712 863d
00000230: 42c2 56bd b23b bfbd ddce 3fba a88d e1bc
00000240: 4233 59bd 3088 aa3d b5f8 1b3d 7853 b6bd
00000250: af07 333d 4f75 95bd 7be8 36bd c513 d43c
00000260: 5767 a63d 8ac5 56bd b808 dbbc 4a86 b53c
00000270: 1a8a 8fbd 8c12 8abc 344d 993d cbcf d1bc
00000280: 22d2 b3bd 369f 403d 2cf5 483d a94d 0e3d
00000290: 1400 a0bd 6ae0 8d3d 08a5 133b 295e 3d3d
000002a0: 0c72 0ebc 1104 81bd 7ab3 833d f198 eb3c
000002b0: 148f 80bc 2161 68bd 7214 2d3d 21d6 39bd
000002c0: 1609 cebc 1563 ff3c 8cba 7ebd 5988 203b
000002d0: dd39 1cbc 2d28 f93c 5bbc 26bd 9258 00bd
000002e0: c307 9abd 6197 81bd 28c4 a53d 9ee1 073d
000002f0: edee 513d 5318 21bd 8c20 e73c 1124 62bd
00000300: 2851 993b 7fcc 78bd f2cb 2b3d 829a 96bd
00000310: d4ba 4c3d 17a1 a83a 880b b4bc 9e67 4cbd
00000320: bfca b1bd 3a8e 123d 9f82 8fbd d5da 623d
00000330: 6ba4 3e3d d959 bfbd 2edc 50bd e288 b83c
00000340: a88e 8c3d 7cfa 97bd bdc9 b0bd e4d2 31bd
00000350: bd90 883c 638a 84bd 1da8 873d a3f9 0fbd
00000360: bcde 163d fbc3 61bd dc41 a23c f9ba ab3d
00000370: 2f41 8abc d138 96bd 2ca9 383b 1191 c93c
00000380: 1a86 2dbd 92e4 213b 170f aa3d e6ec 82bd
00000390: 6811 58bd ffe3 933d acf8 923c 86a1 753d
000003a0: baea 17bd 8f76 a53d 043d 7bbd 170e e3bb
000003b0: d161 863d d738 893d a589 743d 72a0 2f3c
000003c0: defd 1d3d 65a3 853d b84d 223d fd47 47bd
000003d0: a90a 01bd 7930 173d 5ca8 903d b211 983d
000003e0: 9592 093d 6e4f 03bd 75a4 eebc 37f5 4f3d
000003f0: 8820 64bd d852 073d f275 c2bd 696f 863d

main.4.bias f4 [64]
0.06491906 -0.07959661 -0.03564678 -0.048087556 0.050753787 -0.08625519 0.07673805 -0.066096745
-0.04326007 -0.07595479 0.029348493 0.0013582315 0.057323564 -0.07029813 -0.09719669 -0.006038425
-0.09507053 -0.02280223 -0.061676845 -0.01311946 0.05241586 0.06679646 0.0893834 -0.012614353
0.04324697 0.03253065 -0.018942103 0.025051206 0.040216465 -0.07133 0.020636877 0.024938485
0.08221621 -0.04354881 -0.069882035 0.021181168 0.080515854 -0.04395835 0.0038462619 -0.020977236
0.018693244 -0.09794235 -0.0642899 -0.047614984 0.07955846 0.017161427 -0.041696876 -0.04044546
0.053494845 -0.0236916 -0.080565855 -0.016069915 0.05380947 -0.038382284 -0.033131644 -0.025397811
-0.0076459483 0.07437813 -0.01057444 0.08871054 -0.029267538 -0.03172629 0.032530833 0.013717435
00000000: 49f4 843d 8c03 a3bd 5c02 12bd 75f7 44bd
00000010: 34e3 4f3d 90a6 b0bd d728 9d3d bb5d 87bd
00000020: 7931 31bd 2f8e 9bbd 406c f03c b006 b23a
00000030: 1dcc 6a3d 77f8 8fbd 0f0f c7bd fbdd c5bb
00000040: 57b4 c2bd becb babc dca0 7cbd 01f3 56bc
00000050: 03b2 563d 95cc 883d a50e b73d 6eac 4ebc
00000060: bc23 313d dc3e 053d 782c 9bbc 3038 cd3c
00000070: 05ba 243d 7715 92bd ab0e a93c cb4b cc3c
00000080: f960 a83d 3d60 32bd 501e 8fbd 2184 ad3c
00000090: 7fe5 a43d ac0d 34bd 9111 7c3b 74d8 abbc
000000a0: 9322 993c 0096 c8bd 6caa 83bd ee07 43bd
000000b0: 8cef a23d 1f96 8c3c 58ca 2abd 23aa 25bd
000000c0: 691d 5b3d e314 c2bc b6ff a4bd 0ea5 83bc
000000d0: 5267 5c3d be36 1dbd 0cb5 07bd 120f d0bc
000000e0: dd8a fabb 9053 983d 6a40 2dbc dfad b53d
000000f0: 7ac2 efbc 6df3 01bd 0d3f 053d 18bf 603c

main.5.weight f4 [64]
1.0154562 0.9889253 1.0114261 1.0079532 0.99004894 1.0035751 1.0191183 1.0137738
0.9895827 1.0025941 1.014309 1.0158982 0.98721147 0.99184793 0.99062365 0.9893112
0.99212813 1.0097889 1.0021968 1.0033417 0.9923867 0.98941624 0.9951765 1.0094225
0.9945365 1.0076439 1.0173961 0.99855167 1.0119653 1.0117342 0.9969378 1.0154628
1.0089698 0.98917603 1.0187593 1.0117483 1.0074408 1.0183016 0.9911419 0.99309886
0.9916388 0.9933391 0.98770875 1.0114146 1.0139972 1.0053599 0.9990378 1.0008783
0.99817216 0.9900654 0.9962365 0.99560577 0.98593485 0.9898699 1.0068363 1.0064402
1.0081061 0.98446023 1.0050907 1.0132736 1.0077628 1.0088764 0.9974876 1.0206538
00000000: 78fa 813f 352a 7d3f 6976 813f 9c04 813f
00000010: d973 7d3f 2675 803f 7872 823f 57c3 813f
00000020: 4b55 7d3f 0155 803f e1d4 813f f408 823f
00000030: e4b9 7c3f bfe9 7d3f 8399 7d3f 8043 7d3f
00000040: 1cfc 7d3f c340 813f fc47 803f 806d 803f
00000050: 0e0d 7e3f 624a 7d3f e3c3 7e3f c234 813f
00000060: f299 7e3f 7afa 803f 093a 823f 15a1 7f3f
00000070: 1488 813f 8280 813f 5137 7f3f affa 813f
00000080: ec25 813f a43a 7d3f b466 823f f880 813f
00000090: d2f3 803f b557 823f 7abb 7d3f ba3b 7e3f
000000a0: 0adc 7d3f 794b 7e3f 7bda 7c3f 0976 813f
000000b0: a9ca 813f a2af 803f f1c0 7f3f c81c 803f
000000c0: 3688 7f3f ed74 7d3f 5b09 7f3f 05e0 7e3f
000000d0: 3a66 7c3f 1d68 7d3f 03e0 803f 08d3 803f
000000e0: 9f09 813f 9605 7c3f d0a6 803f f3b2 813f
000000f0: 5ffe 803f dd22 813f 595b 7f3f c9a4 823f

main.5.bias f4 [64]
0.0058307745 -0.0119180735 -0.003436589 -0.0057823034 -0.009879108 -0.00021641061 0.007155943 0.009154403
-0.00652151 -0.0014142636 0.014567061 0.011864061 -0.009107502 -0.011347576 -0.009468423 -0.011614144
-0.0125406 0.009252027 0.0056023593 0.0060485867 0.0025477828 -0.00672133 -0.0018968608 0.010612395
-0.0057940665 -0.0074521797 0.015894845 0.0026188428 0.013973575 0.010812502 -0.0067063677 0.015341113
0.010386003 -0.01117184 0.0064936606 0.0007852318 0.0088431295 0.004259517 -0.002404145 -0.0018410755
-0.008652665 -0.01414889 -0.012701334 0.018302131 -0.0038759983 0.009118979 -0.006726556 0.0070872367
-0.00037803117 -0.00718977 0.0054169386 -0.008834259 -0.012260074 -0.011691622 -0.0021693518 0.017854217
0.0012059377 -0.0117826555 0.004936331 0.008116232 -0.010709251 -0.003040681 -0.0073939594 0.012179719
00000000: 1510 bf3b 0644 43bc 6538 61bb 7a79 bdbb
00000010: fbdb 21bc 48ec 62b9 677c ea3b 59fc 153c
00000020: 64b2 d5bb d05e b9ba afaa 6e3c 7a61 423c
00000030: a237 15bc 2feb 39bc 7221 1bbc 4049 3ebc
00000040: 1777 4dbc d095 173c ff93 b73b 3933 c63b
00000050: b4f8 263b 9a3e dcbb 16a0 f8ba 9cdf 2d3c
00000060: 27dc bdbb 6a31 f4bb e835 823c e4a0 2b3b
00000070: 6cf1 643c ec26 313c 17c1 dbbb 4b59 7b3c
00000080: 0e2a 2a3c 180a 37bc c6c8 d43b 04d8 4d3a
00000090: c6e2 103c 6b93 8b3b dc8e 1dbb 3e50 f1ba
000000a0: e8c3 0dbc bfd0 67bc 4219 50bc 5aee 953c
000000b0: 7604 7ebb c567 153c 716a dcbb 0d3c e83b
000000c0: 7c32 c6b9 2a98 ebbb 9380 b13b 91bd 10bc
000000d0: 7ade 48bc 388e 3fbc af2b 0ebb 0243 923c
000000e0: 8e10 9e3a 0a0c 41bc f2c0 a13b f2f9 043c
000000f0: db75 2fbc 2946 47bb 0749 f2bb 728d 473c

main.8.weight f4 [32, 64]
-0.12095321 -0.0032502294 -0.08098591 0.07537025 0.040060688 -0.008545967 -0.10847009 -0.057853274
-0.08167336 -0.047497984 0.097325265 0.06386593 -0.12714212 0.09488181 0.00405586 0.0041040243
0.08248233 -0.08869691 -0.026778359 -0.04802334 -0.0026908298 0.054773614 -0.044561803 0.11306696
-0.093793005 -0.048165042 0.009783676 -0.09008839 0.039199863 0.018758133 0.024925701 -0.051136255
-0.10118256 -0.06485084 0.028964872 0.069318585 -0.08333876 0.06843646 0.07358906 -0.073059075
0.11271771 -0.11036469 -0.02033863 -0.028479494 -0.024851311 0.0893288 0.054599054 0.05104748
0.07697679 0.04537481 -0.035486095 0.10323636 0.06658002 -0.055088162 -0.05457844 0.05075337
0.1317889 -0.030394156 0.03260434 0.06130991 0.004039634 0.042941425 0.03126817 -0.06976449
-0.11582733 0.026718764 0.03257045 -0.043236524 0.02399521 0.08350853 0.08289738 -0.13436444
-0.025173731 -0.0143901585 -0.00400441 -0.09674461 -0.09607075 -0.09665992 0.069950946 -0.097461216
0.0509427 -0.03020804 0.07006141 -0.017163882 0.074650794 -0.08012729 -0.11281539 -0.034497477
0.0096433 0.09813765 0.037471045 0.06815262 -0.0012285041 0.043904886 0.054285236 0.11988011
0.06432828 -0.014753521 0.100708164 -0.08587314 -0.0069476734 0.046433438 -0.068414755 0.11475266
0.026618456 -0.032587007 -0.10718336 -0.020654948 0.057429936 -0.026695225 -0.03318783 0.037435796
-0.08195728 -0.08968275 0.10253916 -0.08664077 -0.042272113 0.08362682 0.0016066105 -0.08909684
0.017853323 -0.049563065 0.1364457 -0.129292 -0.0038325088 -0.08042075 -0.070632905 -0.057782322
0.036167167 -0.09347307 0.028483946 0.10266546 -0.04728272 -0.033080652 0.029603692 -0.046163753
-0.044136725 -0.097573094 -0.010277533 -0.051144697 0.011109671 -0.11579038 -0.09708258 0.018618371
0.07634208 -0.04348506 0.0022873406 -0.087967634 0.099777535 -0.09549324 0.052994058 -0.10041197
0.08210713 0.070632406 -0.07366099 0.0133746965 -0.0017891872 -0.11766523 -0.12012305 -0.040095955
0.023013134 0.039492123 -0.07356214 0.097722664 0.007801765 0.11620104 -0.03980629 0.06124793
0.05187354 -0.09066402 0.054489564 0.02827103 0.03196593 -0.03153594 -0.121678606 -0.060366638
-0.102886006 -0.058161657 -0.09840295 0.10901269 0.061565235 -0.00521804 0.064121306 -0.081453644
-0.07755835 -0.08287256 0.007585876 0.09324062 0.069384456 -0.091430016 -0.03129787 -0.09034481
0.01388592 0.008317584 -0.04424345 -0.015451504 0.049354605 0.09652685 0.08646018 0.0757084
-0.009207303 -0.07772349 -0.04248203 0.01919192 -0.12107298 0.0023463003 -0.04583456 -0.072279595
-0.0890729 0.051648676 -0.053051684 -0.087265395 -0.10732033 -0.0711706 -0.09231014 0.07037738
-0.10256745 -0.0056883004 -0.002030742 -0.027606 0.1274356 0.041410442 0.072081156 -0.037000727
0.06615588 0.006943718 0.104524545 -0.12729976 0.008688087 -0.10648978 0.10743647 -0.011314928
0.11148051 0.052316792 0.05250002 -0.10431195 0.07658686 -0.061939396 -0.114624344 0.062276483
-0.10530677 0.089938514 -0.047350254 -0.06716169 -0.06807772 -0.100620314 -0.019613212 0.031399433
-0.08554398 0.03836773 0.08857844 0.10407277 0.05006431 0.06957891 0.014628969 0.10254155
00000000: 51b6 f7bd cd01 55bb f1db a5bd b85b 9a3d
00000010: ad16 243d 6204 0cbc 9125 debd 8ef7 6cbd
00000020: 5d44 a7bd 3f8d 42bd 7852 c73d 24cc 823d
00000030: 8b31 02be 6551 c23d 05e7 843b 0d7b 863b
00000040: 7fec a83d baa6 b5bd 4a5e dbbc 1fb4 44bd
00000050: a258 30bb 4c5a 603d 7086 36bd a68f e73d
00000060: 8c16 c0bd b548 45bd b64b 203c 4380 b8bd
00000070: 0990 203d a8aa 993c fc30 cc3c 4074 51bd
00000080: cd38 cfbd 84d0 84bd bd47 ed3c e7f6 8d3d
00000090: 83ad aabd 6a28 8c3d dcb5 963d ff9f 95bd
000000a0: 8bd8 e63d e206 e2bd 339d a6bc d44d e9bc
000000b0: fa94 cbbc 05f2 b63d 42a3 5f3d 2a17 513d
000000c0: 02a6 9d3d f0da 393d de59 11bd 966d d33d
000000d0: 1b5b 883d 20a4 61bd a48d 5fbd c4e2 4f3d
000000e0: abf3 063e 2afd f8bc 218c 053d 1a20 7b3d
000000f0: e85e 843b 59e3 2f3d 0d13 003d afe0 8ebd
00000100: e136 edbd 4fe1 da3c 9868 053d c818 31bd
00000110: 9a91 c43c 8506 ab3d 1ac6 a93d d596 09be
00000120: 2439 cebc b3c4 6bbc 6d37 83bb 0a22 c6bd
00000130: bec0 c4bd a3f5 c5bd 7142 8f3d bf99 c7bd
00000140: 4ba9 503d da76 f7bc 5b7c 8f3d 459b 8cbc
00000150: 84e2 983d c719 a4bd c10b e7bd 3a4d 0dbd
00000160: effe 1d3c 64fc c83d 3d7b 193d 9a93 8b3d
00000170: c205 a1ba 9cd5 333d 325a 5e3d b483 f53d
00000180: 8cbe 833d c1b8 71bc 1540 ce3d 42de afbd
00000190: 4fa9 e3bb fd30 3e3d 091d 8cbd 7103 eb3d
000001a0: f30e da3c f479 05bd f382 dbbd 9134 a9bc
000001b0: a73b 6b3d f2af dabc f6ef 07bd 4756 193d
000001c0: 38d9 a7bd 97ab b7bd 0d00 d23d b770 b1bd
000001d0: 8625 2dbd 8a44 ab3d e794 d23a 6778 b6bd
000001e0: 2241 923c a402 4bbd 6cb8 0b3e 1f65 04be
000001f0: d42a 7bbb a2b3 a4bd fca7 90bd 28ad 6cbd
00000200: 0624 143d cf6e bfbd 2a57 e93c 4542 d23d
00000210: 87ab 41bd 947f 07bd 7183 f23c 3416 3dbd
00000220: b6c8 34bd 67d4 c7bd 1963 28bc 1a7d 51bd
00000230: 5605 363c 8223 edbd 3bd3 c6bd 8e85 983c
00000240: 3d59 9c3d 641d 32bd 35e7 153b 6028 b4bd
00000250: 2a58 cc3d f691 c3bd 4c10 593d caa4 cdbd
00000260: c827 a83d b9a7 903d 93db 96bd 8b21 5b3c
00000270: 2983 eaba 78fa f0bd 1303 f6bd a83b 24bd
00000280: 0a86 bc3c 7ec2 213d bfa7 96bd d222 c83d
00000290: f3a5 ff3b d0fa ed3d ec0b 23bd 1cdf 7a3d
000002a0: 5979 543d 0fae b9bd 7330 5f3d a698 e73c
000002b0: b5ee 023d d42b 01bd a232 f9bd 0243 77bd
000002c0: e6b5 d2bd eb3a 6ebd 7c87 c9bd 0c42 df3d
000002d0: d42b 7c3d 18fc aabb 0852 833d 2bd1 a6bd
000002e0: ead6 9ebd 17b9 a9bd f192 f83b f0f4 be3d
000002f0: 7019 8e3d a93f bbbd 3232 00bd b306 b9bd
00000300: c581 633c 7a46 083c 9f38 35bd 4e28 7dbc
00000310: 0e28 4a3d deaf c53d 0912 b13d 010d 9b3d
00000320: 3ada 16bc 7e2d 9fbd a301 2ebd 6038 9d3c
00000330: 1cf5 f7bd 63c4 193b 05bd 3bbd 5307 94bd
00000340: da6b b6bd 908d 533d b94c 59bd 33b8 b2bd
00000350: c3ca dbbd e4c1 91bd 190d bdbd 0422 903d
00000360: e20e d2bd ec64 babb 3216 05bb fa25 e2bc
00000370: 7a7e 023e ff9d 293d 499f 933d 138e 17bd
00000380: bc7c 873d 2188 e33b f710 d63d de5a 02be
00000390: 7a58 0e3c 5017 dabd a707 dc3d 3f62 39bc
000003a0: e54f e43d 224a 563d 430a 573d 81a1 d5bd
000003b0: 92d9 9c3d 2ab4 7dbd 2bc0 eabd a015 7f3d
000003c0: 13ab d7bd af31 b83d 57f2 41bd 118c 89bd
000003d0: 556c 8bbd 0612 cebd e3ab a0bc b19c 003d
000003e0: af31 afbd 7b27 1d3d 9d68 b53d 1b24 d53d
000003f0: 3c10 4d3d 637f 8e3d 58ae 6f3c 4e01 d23d

main.8.bias f4 [32]
-0.05352311 -0.08968933 -0.035910018 0.114500344 0.116570994 0.061372142 0.09635061 0.12338332
-0.06102016 -0.07435905 -0.040560838 0.08646518 0.088339396 0.022070758 0.10334314 -0.056271773
-0.079802394 -0.008193393 0.06822172 -0.085546575 -0.09597614 0.13557099 0.058786895 -0.04414808
-0.11134769 -0.01960306 0.012872493 -0.035525482 0.063375205 -0.08837334 0.111890264 0.033554155
00000000: 0c3b 5bbd 0aaf b7bd 6216 13bd 287f ea3d
00000010: c6bc ee3d 5b61 7b3d 7853 c53d 65b0 fc3d
00000020: 46f0 79bd 8f49 98bd 1f23 26bd a814 b13d
00000030: 49eb b43d bccd b43c 91a5 d33d 3b7d 66bd
00000040: 706f a3bd 953d 06bc d4b7 8b3d 0b33 afbd
00000050: 238f c4bd 1fd3 0a3e 87ca 703d 9ed4 34bd
00000060: 420a e4bd 9996 a0bc 26e7 523c 2b83 11bd
00000070: dcca 813d 15fd b4bd b926 e53d 1570 093d

main.9.weight f4 [32]
0.99284035 1.0126992 0.9971475 0.99577075 1.017569 1.0143592 0.9935473 0.99034345
1.0252602 1.0108969 1.0023508 0.9980615 1.0022988 1.004075 0.99560696 0.99861586
1.0081556 0.9912379 1.0051857 0.99307895 1.02213 1.014752 0.9930708 1.021043
1.00441 0.98822236 0.98944795 0.9984971 1.006791 0.97524744 0.9902086 1.0130961
00000000: c92a 7e3f 21a0 813f 0f45 7f3f d5ea 7e3f
00000010: b33f 823f 86d6 813f 1e59 7e3f 2687 7d3f
00000020: ba3b 833f 1265 813f 084d 803f f580 7f3f
00000030: 544b 803f 8885 803f 19e0 7e3f 4aa5 7f3f
00000040: 3e0b 813f c4c1 7d3f eda9 803f 6c3a 7e3f
00000050: 28d5 823f 65e3 813f e339 7e3f 89b1 823f
00000060: 8290 803f 24fc 7c3f 764c 7d3f 829d 7f3f
00000070: 87de 803f d1a9 793f 507e 7d3f 22ad 813f

main.9.bias f4 [32]
-0.003232307 0.004040654 -0.0025929746 -0.0054650055 -0.00041310678 0.007656334 -0.0038480833 -0.0075976453
0.012024797 0.0064727934 -0.0033449393 -0.0057098567 0.006658942 0.0061041913 -0.003575213 -0.0005226664
0.007185132 -0.0070408313 -6.107646e-05 -0.0005419485 0.022820111 0.01178625 -0.0035750691 0.013648903
0.0086834645 -0.009224498 -0.008345818 -0.0018672716 0.0069095423 0.0016864425 -0.009612031 0.009216234
00000000: 1dd5 53bb 7667 843b e5ee 29bb ca13 b3bb
00000010: 4196 d8b9 fce1 fa3b 2030 7cbb abf5 f8bb
00000020: a703 453c ba19 d43b c536 5bbb c019 bbbb
00000030: 4133 da3b ab05 c83b 1f4e 6abb 8c03 09ba
00000040: 4171 eb3b c6b6 e6bb 2d16 80b8 8c11 0eba
00000050: 3ef1 ba3c 1e1b 413c b54b 6abb a69f 5f3c
00000060: 1745 0e3c 5922 17bc e6bc 08bc 3dbf f4ba
00000070: 7169 e23b 9f0b dd3a c87b 1dbc b0ff 163c

main.11.weight f4 [2, 32]
-0.06029124 -0.17667575 0.04674051 0.1352567 -0.1607096 0.16327721 -0.14604051 -0.027032396
-0.014968213 0.11597319 -0.017102977 -0.14899391 0.052937258 0.1500272 -0.09866982 0.13949332
0.1468679 -0.069116645 -0.07325256 0.15259661 0.08398292 0.11220331 -0.11478431 0.020979116
0.12629455 0.14184462 -0.1044695 0.1652994 0.032157376 0.07137595 -0.012241407 -0.07926213
0.066350505 0.09798488 0.1327551 0.01110541 0.043309398 0.13446312 -0.09997388 -0.023995748
0.12143527 0.0759848 -0.03658646 -0.1708678 -0.06764336 -0.02845736 0.021085832 0.16688393
-0.11686229 0.031919915 0.036452353 0.115288444 0.18244188 0.07167758 0.004500788 0.101726
-0.17967214 0.14551844 -0.07888525 -0.15288746 -0.057435986 0.07659713 0.12263115 -0.012064295
00000000: f3f3 76bd 7dea 34be fa72 3f3d bb80 0a3e
00000010: 0f91 24be 2432 273e a58b 15be 0b73 ddbc
00000020: 3c3d 75bc 5a83 ed3d 8b1b 8cbc dc91 18be
00000030: bdd4 583d bba0 193e 6713 cabd 56d7 0e3e
00000040: 8a64 163e 078d 8dbd 7005 96bd 4942 1c3e
00000050: 3dff ab3d d9ca e53d 0914 ebbd 65dc ab3c
00000060: 5c53 013e b73f 113e 1bf4 d5bd 3f44 293e
00000070: 74b7 033d 8e2d 923d 2f90 48bc 2f54 a2bd
00000080: c6e2 873d 4cac c83d f4f0 073e 77f3 353c
00000090: 3265 313d b3b0 093e 1bbf ccbd bb92 c4bc
000000a0: 0eb3 f83d eb9d 9b3d afdb 15bd f8f7 2ebe
000000b0: 9a88 8abd 691f e9bc 32bc ac3c 9fe3 2a3e
000000c0: 7f55 efbd 75be 023d 104f 153d 591c ec3d
000000d0: 0bd2 3a3e b2cb 923d 597b 933b b955 d03d
000000e0: f9fb 37be c902 153e 978e a1bd 888e 1cbe
000000f0: ff41 6bbd f5de 9c3d 0a26 fb3d 52a9 45bc

main.11.bias f4 [2]
-0.052318126 -0.107835725
00000000: 884b 56bd fad8 dcbd
