models/trained_model.pt (torch, 64689 bytes, 14 tensors)

main.0.weight f4 [128, 30]
0	0x3e2ee9fb	0.17081444
1	0xbd7a6077	-0.061127152
2	0x3d9d91a6	0.07693796
3	0x3e167f0b	0.146969
4	0x3d782b9e	0.06058847
5	0x3db7d567	0.0897625
6	0xbd80389c	-0.062607974
7	0xbe0ec084	-0.13940626
8	0x3d5cec4d	0.05393629
9	0x3db9ecd9	0.09078378
10	0xbd2bed57	-0.04197439
11	0xbdf491c4	-0.11941865
12	0x3e1b956d	0.1519372
13	0xbdd31778	-0.10307211
14	0xbdef82fc	-0.11694905
15	0x3e2f9b51	0.17149092
16	0xbdff51c6	-0.12466769
17	0xbd71d41f	-0.059040185
18	0x3e142e3c	0.14470762
19	0xbe04c35c	-0.12965149
20	0xbd8d1749	-0.06889207
21	0x3d16a673	0.036779832
22	0x3de36035	0.111023344
23	0x3dda66ae	0.10664116
24	0xbde46cd9	-0.111535735
25	0x3db1d1cf	0.08682596
26	0xba8e94ea	-0.001087812
27	0x3d45c0eb	0.048279684
28	0x3dfe50d3	0.1241776
29	0xbbfa9af0	-0.0076478645
30	0xbe01cb1d	-0.12675138
31	0xba86c24a	-0.0010281291
32	0x3d74515c	0.059647903
33	0xbc25e231	-0.010124729
34	0x3e27b442	0.16377357
35	0xbb49be57	-0.0030783617
36	0xbdab1617	-0.08353823
37	0x3e31a507	0.17348109
38	0xbdc37152	-0.095430985
39	0xbd73cfdd	-0.059524406
40	0x3ce36037	0.02775584
41	0x3c3992d7	0.011326513
42	0xbb233eba	-0.0024909214
43	0x3d78cb8b	0.06074099
44	0x3c82bde8	0.015959695
45	0x3d73cb95	0.059520323
46	0x3cdd4058	0.02700822
47	0x3c93d55f	0.01804608
48	0xbdea4b86	-0.11440186
49	0xbc7b824d	-0.01535089
50	0xbe00a3ce	-0.12562487
51	0xbe138ef2	-0.14409998
52	0xbe1997c0	-0.14999294
53	0xbdc5234e	-0.096258745
54	0xbd8f3776	-0.06993
55	0xbe34704b	-0.17620961
56	0xbe214179	-0.15747632
57	0xbe105042	-0.14093116
58	0x3e053cbd	0.13011451
59	0x3e225be8	0.15855372
60	0x3e13faa2	0.14451078
61	0x3d6e76eb	0.058218878
62	0x3cc96e1a	0.024588633
63	0x3dd9e4f7	0.10639375
64	0xbe216099	-0.15759505
65	0xbcf0a23a	-0.02937423
66	0xbd8d5bd0	-0.069022775
67	0xbd86d9f2	-0.065845385
68	0x3d8ac219	0.067753024
69	0x3cacd810	0.02109912
70	0xbde8589e	-0.113450274
71	0x3e1b5938	0.15170753
72	0x3e113cf4	0.14183408
73	0x3d95db19	0.0731718
74	0x3d4e31c7	0.05034044
75	0x3e12c086	0.14331254
76	0x3de18f34	0.11013642
77	0xbdb156f6	-0.086591646
78	0xbd59721c	-0.05308734
79	0x3e2c42da	0.16822377
80	0xbc75970c	-0.014989626
81	0x3d8114f7	0.06302827
82	0x3d4d3159	0.05009589
83	0x3e007bd6	0.1254724
84	0x3d395176	0.045243703
85	0x3deb0605	0.114757575
86	0x3db9b383	0.09067442
87	0x3d55f3d3	0.052234482
88	0x3d8948e0	0.06703353
89	0x3df4b12a	0.11947854
90	0xbe248eca	-0.16070095
91	0x3d459561	0.048238162
92	0x3dfd8632	0.12379111
93	0xbdf1d63b	-0.11808439
94	0xbc2a4828	-0.01039318
95	0x3e169151	0.14703871
96	0x3d31b6ef	0.04338735
97	0xbe395088	-0.18097126
98	0xbd84c2ee	-0.064824924
99	0x3caa383c	0.020778768
100	0x3d1b8e73	0.037977647
101	0x3e0f3012	0.13983181
102	0xbe34e0e0	-0.17663908
103	0xbe120b07	-0.14262019
104	0x3d5fe124	0.05465807
105	0x3be1649d	0.006878449
106	0xbe2c92b4	-0.16852838
107	0x3db23e09	0.087032385
108	0x3c616656	0.013757309
109	0xbe30b0b1	-0.17254902
110	0x3c138dc6	0.009005969
111	0xbc91e8ce	-0.017811205
112	0xbe2e3dcc	-0.17015761
113	0xbd050c23	-0.032482278
114	0xbd9c73cd	-0.07639275
115	0x3ba9f52a	0.0051866965
116	0x3e122427	0.14271604
117	0x3d71752d	0.05894964
118	0x3d217da0	0.039426446
119	0xbb7b20db	-0.0038319144
120	0x3e0fc33f	0.14039324
121	0x3e154966	0.1457878
122	0x3d6a5cc6	0.057217382
123	0x3dd656c6	0.104657695
124	0x3dd6d62d	0.104900695
125	0xbdbf75ac	-0.09348616
126	0xbdc281d9	-0.09497423
127	0x3e2afb5e	0.16697451
128	0x3da30e6c	0.07961735
129	0x3dca4657	0.098766975
130	0x3e009ffb	0.12561028
131	0x3e1e51ce	0.15460894
132	0xbdc52d40	-0.096277714
133	0x3dfe52e9	0.124181576
134	0xbc0cb745	-0.008588617
135	0x3cd1a30b	0.02559044
136	0xbd27537a	-0.040851094
137	0xbdd28f72	-0.10281266
138	0x3e202c75	0.15641959
139	0xbe0efa5f	-0.13962696
140	0xbe21697d	-0.15762897
141	0xbd91b2d8	-0.0711419
142	0x3df58ae5	0.11989383
143	0xbd851810	-0.0649873
144	0xbda6da1d	-0.081470706
145	0xbe21bc95	-0.15794595
146	0xbe381cce	-0.17979738
147	0x3d474918	0.048653692
148	0xbe100e94	-0.14068061
149	0xbdad63d9	-0.0846631
150	0xbe125e67	-0.14293824
151	0x3e285525	0.1643873
152	0xbe310bc3	-0.17289643
153	0xbe2516a2	-0.16121915
154	0x3d9468ea	0.07246573
155	0xbb8588e3	-0.004075156
156	0xbc563787	-0.013074762
157	0xbde81e68	-0.113339245
158	0xbe081485	-0.13289078
159	0xbdebf074	-0.11520472
160	0xbe3b2e69	-0.18279423
161	0x3dc1e364	0.094671994
162	0x3d9ab279	0.07553572
163	0xbe0de291	-0.1385596
164	0xbc6c6ccb	-0.014430235
165	0x3e019cc1	0.12657453
166	0xbd6df033	-0.0580904
167	0x3d4c59ef	0.049890455
168	0x3e2e1669	0.17000736
169	0x3e31b3de	0.1735377
170	0x3d1f78b4	0.03893347
171	0xbd96d8ae	-0.07365547
172	0xbd142240	-0.036165476
173	0x3cd1555f	0.025553403
174	0xbcf94ae4	-0.030431218
175	0xbe11c068	-0.14233553
176	0x3de676bf	0.11253118
177	0xbe04bbf7	-0.12962328
178	0xbd627421	-0.05528653
179	0xbe1a4df6	-0.15068802
180	0xbd015a84	-0.031580463
181	0xbe2ef130	-0.17084193
182	0x3cbe6a9d	0.023244197
183	0x3d9b097b	0.07570168
184	0x3e1c65d9	0.15273227
185	0xbdddaad7	-0.10823601
186	0xbccdba3d	-0.02511322
187	0xbe12286e	-0.14273235
188	0xbd344c96	-0.04401835
189	0x3d8871ad	0.06662307
190	0x3e28e6ef	0.16494344
191	0xbc2fbe54	-0.01072653
192	0x3cf5f84a	0.03002562
193	0xbdd008ec	-0.10157952
194	0x3bf4272a	0.007450958
195	0x3e092b46	0.13395414
196	0x3d8eb099	0.06967277
197	0xbca575dc	-0.020197801
198	0x3d49a427	0.049228813
199	0xbe0f9912	-0.14023235
200	0xbe246125	-0.16052683
201	0xbc49dd88	-0.012320884
202	0xbe2630cb	-0.1622955
203	0x3e14cf04	0.14532095
204	0x3e0bad36	0.13640293
205	0x3e09dfdc	0.13464302
206	0x3e01131b	0.12604944
207	0x3cb96274	0.022629954
208	0xbe2f2972	-0.17105654
209	0x3e2d32af	0.16913866
210	0xbd17a50b	-0.03702263
211	0xbcd924c3	-0.026506787
212	0x3e30164c	0.17196006
213	0xbd90708b	-0.07052716
214	0x3c233788	0.00996197
215	0xbd465b20	-0.048426747
216	0xbd014581	-0.031560425
217	0xbd87dda1	-0.06634069
218	0x3e1e8feb	0.15484588
219	0x3e0491be	0.12946221
220	0xbcee0876	-0.029056769
221	0x3db28d24	0.08718327
222	0x3e09915b	0.13434355
223	0xbc77cae7	-0.015124059
224	0xbcda567f	-0.026652573
225	0xbdd41fe4	-0.10357645
226	0x3d42496f	0.047433313
227	0x3e140f5c	0.14458984
228	0xbd0d0b5f	-0.034434672
229	0x3e37ac7f	0.17936896
230	0x3da30479	0.079598375
231	0xbda90a5a	-0.082539275
232	0xbe058250	-0.13037992
233	0x3d9209ad	0.07130752
234	0xbd8469b1	-0.064654715
235	0xbc883bf5	-0.016630152
236	0xbddc2f58	-0.107512176
237	0x3ca85e8c	0.020552896
238	0x3ddea3f1	0.10871113
239	0xbd7b4237	-0.061342444
240	0x3dd6f225	0.10495404
241	0xbe235355	-0.15949757
242	0xbd837a8f	-0.064198606
243	0x3de5510f	0.11197101
244	0x3d2cdfb7	0.04220554
245	0xbdda64db	-0.10663768
246	0x3de46e0f	0.111538045
247	0x3d39f0b3	0.045395564
248	0x3df2f993	0.11864009
249	0x3de3aad5	0.11116568
250	0x3d7dddbe	0.061979048
251	0xbd4bb135	-0.049729545
252	0xbe07ad72	-0.13249758
253	0x3e1a1a8c	0.1504919
254	0x3e1fb257	0.15595375
255	0xbcd1d715	-0.025615254

main.0.bias f4 [128]
0	0x3d8bc9c9	0.06825597
1	0xbc9f4ca4	-0.019445725
2	0x3e2479e8	0.16062129
3	0xbe102308	-0.14075863
4	0xbdfaf3ce	-0.12253533
5	0x3de298a0	0.11064267
6	0xbe0cd052	-0.13751343
7	0x3e27b833	0.1637886
8	0x3ccfb7fb	0.025356283
9	0x3e185441	0.1487589
10	0xbdb13375	-0.08652393
11	0xbe10c404	-0.14137274
12	0xbe4388ed	-0.19095202
13	0xbda71b13	-0.08159461
14	0xbd89b088	-0.06723124
15	0xbc31d484	-0.01085389
16	0x3dc34fb7	0.09536689
17	0x3d4caac7	0.049967553
18	0x3e3d0b38	0.18461311
19	0x3c1ffb7f	0.009764551
20	0xbdaa4b85	-0.083151855
21	0x3dd44f51	0.10366691
22	0x3e051e8d	0.12999935
23	0x3e25938e	0.16169569
24	0xbe2954ce	-0.16536257
25	0x3b2e5d42	0.002660588
26	0xbe06ccae	-0.13164017
27	0xbd295af2	-0.041346498
28	0xbd820269	-0.06348116
29	0xbda085d2	-0.07838024
30	0x3db1bf64	0.08679083
31	0xbd7fb041	-0.06242395
32	0xbe2a0c22	-0.16606191
33	0xbde95cf4	-0.113946825
34	0xbd88f1d8	-0.06686753
35	0xbc9fc31d	-0.019502217
36	0x3e2584c1	0.16163923
37	0x3d9910f9	0.074739404
38	0x3cc185d5	0.023623386
39	0xbe0595e5	-0.13045461
40	0x3e243aa3	0.16037993
41	0x3d6c25e2	0.057653315
42	0xbd095d26	-0.0335361
43	0x3e2f7cd9	0.1713747
44	0x3e2bb1b9	0.16767015
45	0xbd8ae4ff	-0.06781959
46	0x3e03564e	0.12825891
47	0x3b4eb219	0.003153926
48	0x3db62b04	0.08894923
49	0x3e0deb22	0.13859227
50	0xbe29d6e7	-0.16585885
51	0x3e11495a	0.14188138
52	0x3d53205d	0.051544536
53	0xbd26281c	-0.040565595
54	0xbd9b7fe0	-0.075927496
55	0xbd08289c	-0.033241853
56	0x3e3dc822	0.18533376
57	0x3db13c16	0.086540386
58	0x3e1310c4	0.14361864
59	0x3d8a265c	0.06745598
60	0x3e1fd894	0.15609962
61	0xbe29f472	-0.16597155
62	0x3dfc8dca	0.123317316
63	0x3e2c0473	0.16798572
64	0xbe2dd63d	-0.16976257
65	0x3c58e132	0.0132372845
66	0x3e18a7b5	0.14907725
67	0x3dc41282	0.095738426
68	0xbe0c1a87	-0.13681994
69	0xbde50364	-0.11182287
70	0x3e4080b9	0.18799104
71	0x3d0d1f2a	0.03445355
72	0xbdd1a9c1	-0.10237456
73	0x3daf5330	0.08560789
74	0xbdd40e57	-0.103542976
75	0xbd06adc9	-0.03288058
76	0x3de69621	0.112591036
77	0xbcd166b4	-0.025561668
78	0x3d8dfdcf	0.06933176
79	0x3d384900	0.044991493
80	0xbcef4050	-0.029205471
81	0xbd14cf6b	-0.03633062
82	0xbddf27f2	-0.10896291
83	0x3d3de39e	0.04635965
84	0xbe244258	-0.16040933
85	0xbd93bd73	-0.07213869
86	0x3db7627f	0.089543335
87	0xbdce4f53	-0.10073724
88	0xbe1c16b6	-0.15243039
89	0x3d07a56e	0.03311675
90	0xbdbba593	-0.0916244
91	0x3d46782f	0.04845446
92	0xbe12206b	-0.14270179
93	0x3d20d08e	0.039261393
94	0x3df7e5e9	0.12104399
95	0x3e00cef1	0.12578942
96	0xbde8edf5	-0.11373512
97	0xbe257550	-0.16158032
98	0xbe2a7f22	-0.1665006
99	0xbceef655	-0.029170195
100	0xbe0cc113	-0.13745527
101	0xbd9cd42d	-0.07657657
102	0x3d7a45ac	0.0611016
103	0xbd716123	-0.058930527
104	0xbe2293c3	-0.15876679
105	0x3e2db0d6	0.16961989
106	0xbb313623	-0.0027040325
107	0xbdf6f500	-0.12058449
108	0x3dfa58fc	0.12224004
109	0x3e07c383	0.13258176
110	0xbd1f612b	-0.038911026
111	0xbd005cd3	-0.031338524
112	0x3e16f87e	0.1474323
113	0xbe3d5dba	-0.18492785
114	0x3ca1d04b	0.019752642
115	0xbd8e9c7a	-0.06963439
116	0xbc8e83ae	-0.017396774
117	0x3c405f2f	0.011741444
118	0xbd632ae9	-0.055460844
119	0x3e09a798	0.13442838
120	0xbe15e903	-0.14639668
121	0xbe3713cb	-0.17878644
122	0x3ccf8f2f	0.02533683
123	0x3dac934e	0.08426534
124	0xbcb3fd9c	-0.021971516
125	0x3d6456d8	0.055746883
126	0x3e1b3340	0.15156269
127	0xbca01f23	-0.019546097

main.1.weight f4 [128]
0	0x3f802697	1.0011777
1	0x3f7ee714	0.9957135
2	0x3f812fc6	1.0092704
3	0x3f807aad	1.0037438
4	0x3f7df136	0.99196184
5	0x3f80992c	1.0046744
6	0x3f7f6083	0.9975664
7	0x3f800c57	1.0003766
8	0x3f80e4b7	1.0069798
9	0x3f8063c5	1.0030447
10	0x3f811848	1.0085535
11	0x3f7ed4f4	0.9954369
12	0x3f806861	1.0031854
13	0x3f7dfcbb	0.9921376
14	0x3f7f2b37	0.99675316
15	0x3f805ac1	1.0027696
16	0x3f7f7bb3	0.99798125
17	0x3f8116fa	1.0085137
18	0x3f7e3d74	0.9931252
19	0x3f7f5ed0	0.9975405
20	0x3f7f11e5	0.9963668
21	0x3f80936b	1.0044988
22	0x3f809f92	1.0048697
23	0x3f7e91db	0.9944131
24	0x3f8078ff	1.0036925
25	0x3f802a9a	1.0013001
26	0x3f800665	1.0001951
27	0x3f7ef043	0.9958536
28	0x3f808b87	1.004258
29	0x3f7febbe	0.9996909
30	0x3f80cf37	1.0063237
31	0x3f7fe2a6	0.99955213
32	0x3f80bab5	1.0056978
33	0x3f7eb67c	0.994972
34	0x3f800a6f	1.0003184
35	0x3f7ef90a	0.99598753
36	0x3f8141f9	1.0098258
37	0x3f80f323	1.00742
38	0x3f7ffea5	0.9999793
39	0x3f8046c3	1.0021595
40	0x3f7ecde4	0.99532914
41	0x3f80cc4d	1.0062348
42	0x3f807188	1.0034647
43	0x3f810c17	1.0081815
44	0x3f7f9349	0.99834114
45	0x3f80a0f0	1.0049114
46	0x3f7e6634	0.993747
47	0x3f810932	1.0080931
48	0x3f8006e7	1.0002106
49	0x3f80fb4f	1.0076693
50	0x3f7f0953	0.996236
51	0x3f7f4d25	0.9972709
52	0x3f7e42b2	0.9932052
53	0x3f8071f8	1.003478
54	0x3f80b067	1.0053834
55	0x3f7ddd09	0.991654
56	0x3f810fcd	1.0082947
57	0x3f80f8ec	1.0075965
58	0x3f804515	1.0021082
59	0x3f80568e	1.0026414
60	0x3f7de21b	0.99173135
61	0x3f80f170	1.0073681
62	0x3f7e8319	0.9941879
63	0x3f807993	1.0037102
64	0x3f7df485	0.9920123
65	0x3f7e1402	0.9924928
66	0x3f7d90eb	0.9904925
67	0x3f7eef78	0.9958415
68	0x3f80b35c	1.0054736
69	0x3f7dd66a	0.99155295
70	0x3f811de0	1.0087242
71	0x3f7e744a	0.99396193
72	0x3f7fec69	0.9997011
73	0x3f811019	1.0083038
74	0x3f81005d	1.0078236
75	0x3f810ca0	1.0081978
76	0x3f7ffdad	0.99996454
77	0x3f80d217	1.0064114
78	0x3f804204	1.0020146
79	0x3f7efde9	0.99606186
80	0x3f7fddae	0.9994763
81	0x3f7e242e	0.99273956
82	0x3f7e5bd8	0.9935889
83	0x3f80065c	1.0001941
84	0x3f8048e5	1.0022246
85	0x3f80cc3b	1.0062326
86	0x3f7fbade	0.9989451
87	0x3f7f74b9	0.9978748
88	0x3f81111b	1.0083345
89	0x3f7fd163	0.99928874
90	0x3f7f2caf	0.99677557
91	0x3f7e2fa7	0.9929146
92	0x3f80c817	1.0061063
93	0x3f7f7fe0	0.99804497
94	0x3f80d50e	1.0065019
95	0x3f80fd3e	1.0077283
96	0x3f7f09fa	0.996246
97	0x3f8024bb	1.0011209
98	0x3f800018	1.0000029
99	0x3f7e9e9b	0.9946076
100	0x3f7f6dc3	0.9977686
101	0x3f7fe597	0.999597
102	0x3f7ecf15	0.9953473
103	0x3f8036b1	1.001669
104	0x3f7f6bd8	0.9977393
105	0x3f8021ac	1.0010276
106	0x3f811399	1.0084106
107	0x3f7fa0f6	0.9985498
108	0x3f80ca6e	1.0061777
109	0x3f80acb6	1.0052707
110	0x3f80fc20	1.0076942
111	0x3f7f8940	0.998188
112	0x3f80f262	1.0073969
113	0x3f7e78b3	0.9940292
114	0x3f7e8571	0.99422365
115	0x3f80c820	1.0061073
116	0x3f7fdced	0.9994648
117	0x3f7f2d76	0.9967874
118	0x3f7e3902	0.99305737
119	0x3f7e5b3a	0.9935795
120	0x3f7ea0f6	0.99464357
121	0x3f7e7f72	0.99413216
122	0x3f810022	1.0078166
123	0x3f806c75	1.0033098
124	0x3f7e214b	0.9926955
125	0x3f7eb25b	0.994909
126	0x3f7eabca	0.9948088
127	0x3f7eae23	0.9948446

main.1.bias f4 [128]
0	0xba6c6119	-0.0009017154
1	0x3bbd85ec	0.005783787
2	0x3b5c21cc	0.003358948
3	0x3b33c01c	0.0027427739
4	0xbbfcbd59	-0.0077130017
5	0x3b96520e	0.0045874184
6	0x3aa56774	0.0012619332
7	0xbb19dc7e	-0.002347737
8	0x3b205ebf	0.0024470536
9	0x3a198bdf	0.0005857329
10	0x3c13043e	0.008973179
11	0x3bbfdeca	0.005855416
12	0xba939f77	-0.0011262734
13	0xbbb9cbae	-0.0056700325
14	0x3b71c063	0.0036888353
15	0x3b75b353	0.0037490919
16	0x3a8470eb	0.0010104453
17	0x3c066423	0.008202585
18	0xbbc014da	-0.0058618607
19	0xb9abd3cd	-0.00032773466
20	0xbb3dc3d2	-0.002895583
21	0x3a0b85bd	0.0005322358
22	0x3bc4822e	0.005996964
23	0xbba0ff46	-0.0049132435
24	0x3b875f97	0.0041312682
25	0xbaa72bf6	-0.001275419
26	0x3a94f29e	0.001136381
27	0x39922fc4	0.00027882878
28	0x3b7ac56f	0.0038264652
29	0xba9c6884	-0.0011933004
30	0x3ba64a65	0.0050747865
31	0xbb482a02	-0.0030542617
32	0x3affe915	0.001952442
33	0xbb19879d	-0.002342678
34	0x3bf365e7	0.007427919
35	0xbb482724	-0.0030540908
36	0x3c05156d	0.008122784
37	0x3bee6955	0.00727574
38	0xbaa71aa2	-0.0012749026
39	0x3ad2d893	0.0016086273
40	0xbb493437	-0.0030701288
41	0x3be27eab	0.0069120727
42	0x3b525f99	0.0032100438
43	0x3c04abe4	0.008097623
44	0xbb79a2c2	-0.0038091396
45	0x3bc97c42	0.006148846
46	0xbba3dbd9	-0.005000573
47	0x3ae8685d	0.0017731298
48	0xbb916f8b	-0.004438346
49	0x3baedafc	0.0053361636
50	0x3ba525b5	0.0050398954
51	0xbb78e245	-0.0037976664
52	0xbaae45d6	-0.0013295959
53	0xbbd30c9d	-0.0064407126
54	0x3b3066e6	0.00269168
55	0xbba0ab20	-0.004903212
56	0x3bf2011f	0.0073853876
57	0x3bffba63	0.0078042015
58	0xba89deb2	-0.0010518639
59	0x3a65c822	0.0008765479
60	0xbb3bbdfc	-0.0028647175
61	0x3b9b65c3	0.0047423556
62	0xbb47d6db	-0.0030493054
63	0xbb3e6968	-0.0029054526
64	0xbbe5133c	-0.0069908183
65	0xbb1ca5d8	-0.0023902562
66	0xbbbd0635	-0.005768562
67	0xbb6efeec	-0.0036467863
68	0x3bb4f88e	0.005522794
69	0xbbd6c47a	-0.0065541836
70	0x3c0621fc	0.008186813
71	0xbc1072a9	-0.0088164
72	0x3b67428a	0.0035287463
73	0x3bf64682	0.0075157294
74	0x3bf4065f	0.0074470486
75	0x3b39dd22	0.0028360565
76	0x3828a9c4	4.0212428e-05
77	0xbaf36856	-0.0018570523
78	0x3b8d1a2d	0.004306099
79	0xbb4683b1	-0.0030290897
80	0xbb214d74	-0.0024612816
81	0xbbdb605f	-0.006694838
82	0xbbd63fd8	-0.0065383725
83	0xbbc59152	-0.0060292864
84	0x3bde698f	0.006787486
85	0x3b051ce4	0.002031141
86	0xbb2eb71d	-0.0026659437
87	0x3bd31d43	0.0064426973
88	0x3c0229f8	0.007944576
89	0xbaf35712	-0.0018565378
90	0xbb9fda31	-0.0048783054
91	0xbbc7eded	-0.006101361
92	0x3bc44a48	0.0059903003
93	0x3b8ff2e2	0.0043929676
94	0x3be88684	0.0070961136
95	0x3bfee360	0.00777857
96	0x38d013e7	9.92192e-05
97	0x3acc6efc	0.0015597041
98	0xba95da92	-0.0011432937
99	0xbb93f2ca	-0.0045150267
100	0xbb40c428	-0.0029413793
101	0xbb966945	-0.004590186
102	0xb9c36ee7	-0.00037275927
103	0x3bbd05f4	0.005768532
104	0xbafeec15	-0.001944902
105	0x3b68eee5	0.0035542783
106	0x3beb9432	0.007189297
107	0xbbe16be2	-0.0068793157
108	0x3bbe548e	0.0058084195
109	0xbb4fe54a	-0.003172236
110	0x3be5789e	0.007002904
111	0x3a44b44c	0.0007503673
112	0x3bbceb0b	0.005765324
113	0xbc0064b4	-0.0078365095
114	0xbbc52193	-0.0060159652
115	0x3bb22daf	0.005437575
116	0x3aa64c13	0.0012687467
117	0xbbdc197a	-0.006716904
118	0xbaf98f3a	-0.0019039877
119	0x3ad144bc	0.0015965919
120	0xbb4b3016	-0.0031004003
121	0xbbbc9754	-0.0057553444
122	0x3c0a4967	0.008440352
123	0x3b9fca67	0.004876423
124	0xbbdac7fb	-0.0066766716
125	0xbb4b769d	-0.003104604
126	0xba10dd25	-0.0005526117
127	0xbbd0f484	-0.006376805

main.4.weight f4 [64, 128]
0	0xbcca304f	-0.024681238
1	0x3d143faa	0.036193527
2	0xbd4946e7	-0.049139883
3	0x3c5c74de	0.013455598
4	0xbb6efbed	-0.0036466077
5	0x3ba2a389	0.0049633426
6	0xbda580b8	-0.08081192
7	0x3cdfa9ef	0.02730271
8	0xbdc3e56f	-0.09565245
9	0xbb9d247f	-0.0047956104
10	0xbcbd8174	-0.023133017
11	0xbdb29e62	-0.087216154
12	0xbc849d0f	-0.016188173
13	0x3d365062	0.044510253
14	0xbd0d9ed8	-0.034575313
15	0x3d193ba8	0.03741041
16	0xbc002b66	-0.007822847
17	0x3bc0c164	0.005882429
18	0x3cd3f567	0.025873853
19	0xbca2a6d3	-0.019854939
20	0xbd82d1c4	-0.06387666
21	0xbcfd062e	-0.030886736
22	0x3ccbd604	0.024882324
23	0xbd58af8d	-0.052901793
24	0x3cae359c	0.021265797
25	0xbd212a27	-0.03934684
26	0xbd5a0a0a	-0.05323223
27	0x3d3f8be5	0.046764273
28	0x3db12b89	0.08650882
29	0x3cf3c218	0.029755637
30	0x3d9b8e49	0.07595498
31	0xbd1cc240	-0.03827119
32	0x3cdd5cb8	0.02702175
33	0xbd234f8b	-0.03987078
34	0xb9a0ed20	-0.0003069425
35	0xbd6baaba	-0.057535864
36	0x3d09aa53	0.0336097
37	0xbd653788	-0.05596116
38	0x3dbb4caf	0.091454856
39	0x3cc517ae	0.024059143
40	0xbd93044f	-0.07178556
41	0x3d0a20d5	0.033722717
42	0x3cab4925	0.020908901
43	0xbca6f37e	-0.020379778
44	0x3d9a22d8	0.07526177
45	0xbd19dd37	-0.037564483
46	0xbd44cefd	-0.048048962
47	0xbd58ed2f	-0.05296057
48	0x3d612a38	0.054971904
49	0xbd4abdfc	-0.04949759
50	0x3cf08059	0.029358076
51	0xbd4cf365	-0.050036807
52	0x3cfe33d1	0.031030567
53	0x3d3d0bca	0.04615382
54	0x3c03bfab	0.008041303
55	0xbc0e411c	-0.0086825155
56	0xbdb232b0	-0.08701074
57	0xbd7a85c0	-0.06116271
58	0x3d8eb87e	0.06968783
59	0x3d3b0fc7	0.045669343
60	0x3da10cec	0.07863793
61	0xbdbc83c4	-0.0920482
62	0x3db34149	0.087526865
63	0xbc9bba3e	-0.019009706
64	0xbdabffb6	-0.08398382
65	0x3c448e20	0.011996776
66	0x3d8a7a6a	0.0676163
67	0xbdad97af	-0.08476197
68	0xbd3e0eb7	-0.046400752
69	0x3cf7f2c4	0.030267127
70	0x3c1c171e	0.009526996
71	0xbd95bac9	-0.07311017
72	0xbd1e5946	-0.038659357
73	0x3a62df89	0.0008654525
74	0xbd860507	-0.06543928
75	0xbc8b1298	-0.01697664
76	0xbdb4ccb1	-0.08828104
77	0xbd8bbf49	-0.06823594
78	0xbd87380e	-0.066024885
79	0xbbb2e9e6	-0.005460012
80	0x3d17b703	0.037039768
81	0xbd7e5561	-0.062093142
82	0x3d63e6c2	0.05563999
83	0x3dbaeb50	0.091269135
84	0xbd94e24f	-0.072697274
85	0xbca05801	-0.019573214
86	0x3c939bc9	0.01801862
87	0xbc9b0322	-0.018922392
88	0xbced2b04	-0.028951176
89	0x3d4ec490	0.050480425
90	0x3b196778	0.002340762
91	0xbcbeeac4	-0.023305304
92	0xbd3177ec	-0.043327257
93	0x3d43034f	0.047610577
94	0x3c887717	0.016658349
95	0xbda0ee31	-0.078579314
96	0x3d9c8f8b	0.07644566
97	0xbca1e14c	-0.01976075
98	0xbd9be439	-0.076118894
99	0xbca1b3d2	-0.019739065
100	0x3c2a0319	0.010376715
101	0x3dbb5134	0.09146348
102	0xbd04c859	-0.03241763
103	0x3c0f3100	0.00873971
104	0xbd54ee65	-0.051985163
105	0xbce27f31	-0.02764854
106	0x3cbabe28	0.022795752
107	0x3da6bce6	0.08141498
108	0x3da5690f	0.08076679
109	0x3d67b4ef	0.056569036
110	0x3cf16609	0.0294676
111	0x3d6a62b6	0.057223044
112	0x3d630dec	0.0554332
113	0x3b9365ef	0.0044982354
114	0x3d586258	0.052828163
115	0x3c49aeb7	0.012309722
116	0xbd0989f5	-0.03357883
117	0xbd96c4d6	-0.07361762
118	0xbc173cc4	-0.009230796
119	0x3d3e0d97	0.04639968
120	0xbd2ad944	-0.041711107
121	0x3dafc902	0.08583261
122	0xbd6afe9a	-0.057371713
123	0x3d858c5d	0.06520913
124	0xbd597534	-0.05309029
125	0x3cb70429	0.02234085
126	0xbd451edc	-0.048125133
127	0xbd71b501	-0.05901051
128	0x3dc060ad	0.093934394
129	0xbd6d6595	-0.057958204
130	0x3dba6348	0.09100968
131	0x3d82661d	0.06367133
132	0x3a79b762	0.00095259224
133	0xbd218d63	-0.039441478
134	0x3d898e33	0.067165755
135	0x3d349854	0.044090584
136	0x3dbf31e6	0.09335689
137	0xbd16647a	-0.036716916
138	0x3d8a24e3	0.06745317
139	0x3d16d82c	0.03682725
140	0x3d9fffc6	0.07812457
141	0x3cdd8def	0.027045218
142	0x3d70eb6a	0.05881826
143	0x3cc458ec	0.023968183
144	0xbda10919	-0.07863063
145	0x3a450222	0.00075152714
146	0x3d6e3632	0.058157153
147	0xbdafc8f0	-0.08583248
148	0x3da36152	0.07977547
149	0xbc93fa00	-0.018063545
150	0xbd00d592	-0.031453677
151	0xbd6d68e3	-0.057961356
152	0xbd8f550e	-0.06998645
153	0xbd0c5553	-0.03426106
154	0xbce4b7d2	-0.027919684
155	0x3d107efb	0.035277348
156	0x3d883194	0.06650081
157	0x3d869474	0.06571284
158	0xbd99a1d0	-0.075015664
159	0x3b5b5632	0.0033468124
160	0xbda653f2	-0.0812148
161	0xbd755e86	-0.059904598
162	0xbd4ee8fb	-0.050515156
163	0x3c815615	0.015788117
164	0xbd9ffcfc	-0.07811925
165	0xbd0fe14b	-0.035126965
166	0xbcbe1931	-0.023205372
167	0xbd387a68	-0.04503861
168	0x3cac22e7	0.021012736
169	0xb9e3b852	-0.00043434143
170	0xbc454ce4	-0.012042258
171	0x3c9d63fc	0.019212715
172	0xbd2d0035	-0.042236526
173	0x3d8ac4ee	0.067758426
174	0x3ac7e1d3	0.0015249796
175	0xbdb0a35a	-0.08624907
176	0xbd233f80	-0.03985548
177	0xbd1168cc	-0.035500333
178	0x3d1ac061	0.037781123
179	0xbd9d1d9c	-0.07671663
180	0x3db00b57	0.08595913
181	0xbd507441	-0.05089212
182	0x3ce630ea	0.028099496
183	0xbd1e5cd9	-0.038662765
184	0x3b98fba9	0.004668672
185	0x3c493d2e	0.012282653
186	0xbd904753	-0.07044854
187	0x3bff2ce6	0.0077873347
188	0xbcc7212c	-0.02430781
189	0x3c5d4989	0.013506302
190	0xbd26396c	-0.040582106
191	0xbd86382f	-0.06553685
192	0xbcf01273	-0.029305672
193	0x3d2fd303	0.042925846
194	0xbd2db91a	-0.042412855
195	0xbd7f1312	-0.062274046
196	0x3da7c963	0.08192708
197	0x3c3c3b6b	0.011488776
198	0x3dbb8fb9	0.09158272
199	0xbd716975	-0.058938462
200	0xbd9b2129	-0.07574684
201	0x3d23c696	0.03998431
202	0x3d4fca34	0.050729945
203	0xbbb9bae6	-0.005668032
204	0xbc2da5db	-0.010598625
205	0x3d686190	0.056733668
206	0x3d955a4b	0.07292613
207	0xbcd0f572	-0.025507662
208	0xbd563b0f	-0.052302416
209	0xbd98b603	-0.07456591
210	0xbcb5dad6	-0.022199076
211	0x3d5a1796	0.05324515
212	0xbc958f68	-0.018256858
213	0x3d24a71e	0.040198438
214	0xbda10901	-0.078630455
215	0xbd0d62d8	-0.034518093
216	0x3d442f80	0.047896862
217	0xbd742930	-0.059609592
218	0x3c7f90a2	0.015598448
219	0x3d0a6943	0.03379179
220	0x3d6ec28d	0.058291007
221	0xbcf2ef52	-0.029655132
222	0x3c8fc0ca	0.017547984
223	0xbd0b5dfe	-0.034025185
224	0xbd1b0bc2	-0.03785301
225	0x3cd9dedd	0.026595527
226	0x3d27b3b3	0.04094286
227	0xbc83207f	-0.016006706
228	0xbbf16d58	-0.007367771
229	0xbcc37420	-0.023859084
230	0xbd3a1b83	-0.045436393
231	0xbcb757f6	-0.02238081
232	0xbac589ae	-0.0015070939
233	0x3cde0d4b	0.027105948
234	0x3cb5e6d4	0.022204794
235	0xbd579622	-0.052633412
236	0xbc25cd5f	-0.010119765
237	0x3d805424	0.062660486
238	0xbd30d21f	-0.043169137
239	0x3d49f4e6	0.04930582
240	0x3c95257b	0.018206349
241	0x3dc1bf93	0.09460368
242	0xbd87b555	-0.06626383
243	0x3bd85f51	0.0066031595
244	0x3d8c4926	0.068498895
245	0x3d5d111c	0.053971395
246	0xbda46915	-0.08027855
247	0xbcfdde5b	-0.030989816
248	0xbd3f4b87	-0.046702888
249	0xbce5fd82	-0.028074984
250	0x3d1f2be6	0.038860224
251	0x3da351d6	0.07974593
252	0xbc0150c5	-0.007892792
253	0xbb280d4a	-0.0025642687
254	0x3d49955b	0.049214702
255	0x3c722144	0.014778439

main.4.bias f4 [64]
0	0xbd7d45e3	-0.061834227
1	0xbd70e650	-0.058813393
2	0x3d0b09ab	0.033944767
3	0xbc34b526	-0.011029517
4	0x3d04e0de	0.032441013
5	0xbd988e6b	-0.07449039
6	0x3d586f6c	0.052840635
7	0x3da1bd01	0.07897378
8	0xbcccb762	-0.024989787
9	0xbd65c89e	-0.056099527
10	0xbce6f69c	-0.028193764
11	0xbc4d275e	-0.012521593
12	0x3cb641c4	0.022248156
13	0x3da94952	0.08265938
14	0xbc160551	-0.009156541
15	0x3c65c6fa	0.0140244905
16	0xbd1b5285	-0.037920494
17	0x3d17eb9a	0.03708992
18	0x3b2ac64d	0.0026058138
19	0xbd38b4e7	-0.045094397
20	0xbd89f671	-0.06736458
21	0xbc8a50ab	-0.016884169
22	0x3ce96a81	0.028493168
23	0x3d3dbd7f	0.046323296
24	0xbd6e3ed7	-0.058165397
25	0xbd0ca26d	-0.03433459
26	0xbd86e418	-0.06586474
27	0xbd198e2e	-0.03748911
28	0x3c936c7a	0.017996062
29	0xbbdc2f39	-0.0067194966
30	0xbd01abde	-0.031658046
31	0xbd077442	-0.033069856
32	0xbd2aebc7	-0.04172876
33	0xbdbdebed	-0.09273515
34	0xbda08035	-0.078369536
35	0xbc5a56c4	-0.013326351
36	0xbb886dd1	-0.0041634818
37	0x3cbf7a09	0.02337362
38	0xbd670c02	-0.056407936
39	0xbd8ba5bf	-0.06818723
40	0x3d98f46b	0.07468494
41	0x3daba140	0.08380365
42	0x3d3eb0a7	0.046555188
43	0xbd29560c	-0.041341826
44	0x3dab6ef7	0.08370774
45	0x3d88a959	0.066729255
46	0xbb8a3e01	-0.004218817
47	0xbd8aa417	-0.06769579
48	0xbc905008	-0.017616287
49	0x3c4d6bdc	0.012537923
50	0x3da803a8	0.082038224
51	0x3db4c0a0	0.08825803
52	0xbd9f7d14	-0.07787529
53	0xbd59e5f3	-0.053197812
54	0xbd2d6564	-0.04233302
55	0xbce9c536	-0.02853642
56	0xbd02f799	-0.03197441
57	0x3d4210e3	0.047379386
58	0xbce2b6a5	-0.027674982
59	0xbc46c80e	-0.012132658
60	0xbd8695f7	-0.06571572
61	0xba848917	-0.0010111657
62	0xbda24188	-0.07922655
63	0xbbfdd17e	-0.0077459207

main.5.weight f4 [64]
0	0x3f80a517	1.0050381
1	0x3f807267	1.0034913
2	0x3f7f10dc	0.996351
3	0x3f7f2cb6	0.996776
4	0x3f8123bb	1.0089029
5	0x3f7e1b62	0.9926053
6	0x3f804e85	1.0023962
7	0x3f80f6f6	1.0075366
8	0x3f7ea270	0.9946661
9	0x3f809af5	1.0047289
10	0x3f7f8915	0.99818546
11	0x3f80f515	1.0074793
12	0x3f811eac	1.0087485
13	0x3f7eea5c	0.99576354
14	0x3f8089e5	1.0042082
15	0x3f807c09	1.0037853
16	0x3f7e9336	0.99443376
17	0x3f7fca2a	0.9991785
18	0x3f80c5eb	1.00604
19	0x3f80547a	1.002578
20	0x3f80f045	1.0073324
21	0x3f80423b	1.0020212
22	0x3f80dcaa	1.0067341
23	0x3f801e17	1.0009183
24	0x3f810249	1.0078822
25	0x3f802579	1.0011436
26	0x3f7f0830	0.9962187
27	0x3f80a005	1.0048834
28	0x3f7e5cbc	0.9936025
29	0x3f80fc29	1.0076953
30	0x3f7e92c0	0.9944267
31	0x3f7e4ed9	0.9933906
32	0x3f7e1114	0.9924481
33	0x3f7e3c41	0.9931069
34	0x3f7f3d47	0.99702877
35	0x3f807932	1.0036986
36	0x3f7f5811	0.99743754
37	0x3f7e8acd	0.99430543
38	0x3f7f7963	0.99794596
39	0x3f80e92b	1.0071157
40	0x3f7fee83	0.99973315
41	0x3f80df4c	1.0068145
42	0x3f8019c1	1.000786
43	0x3f805c01	1.0028077
44	0x3f7ddcfc	0.9916532
45	0x3f7f5c46	0.99750173
46	0x3f811415	1.0084254
47	0x3f805b68	1.0027895
48	0x3f8024df	1.0011252
49	0x3f801399	1.0005981
50	0x3f7eb2bc	0.99491477
51	0x3f80b474	1.005507
52	0x3f811a1f	1.0086097
53	0x3f7e0a58	0.99234533
54	0x3f80ca86	1.0061805
55	0x3f7edad8	0.9955268
56	0x3f811629	1.0084888
57	0x3f806967	1.0032166
58	0x3f7f017d	0.99611646
59	0x3f7ec791	0.99523264
60	0x3f80eee6	1.0072906
61	0x3f7f5253	0.9973499
62	0x3f80df20	1.0068092
63	0x3f812c9d	1.009174

main.5.bias f4 [64]
0	0x3b4ab42c	0.0030930145
1	0xbad152bc	-0.0015970091
2	0x3b125c60	0.0022332892
3	0xbab92c07	-0.0014127501
4	0x3bd56873	0.0065126955
5	0xbb85b9ab	-0.0040809712
6	0x38fba156	0.00011998664
7	0x3b6635bb	0.003512724
8	0xbab6e6b3	-0.0013954252
9	0x3bc56ffe	0.0060253134
10	0x3bc403c4	0.005981894
11	0x3bbdbd86	0.005790415
12	0x3bc79509	0.0060907644
13	0xbb40fdc4	-0.002944813
14	0x3b70e64f	0.0036758368
15	0x3bf2024b	0.0073855272
16	0xbbd4847c	-0.00648552
17	0xbb327ff5	-0.0027236913
18	0x3afb0e24	0.0019153995
19	0x3b68ae99	0.003550446
20	0x3be644a3	0.007027225
21	0x3ab693c6	0.0013929538
22	0x3b091726	0.0020918339
23	0x3b51b7ab	0.0032000344
24	0xb90ba220	-0.00013316469
25	0x3b6c0fa2	0.003602006
26	0x3ac22c1c	0.0014814171
27	0x3b459abc	0.0030152043
28	0xbbafbb44	-0.0053629
29	0x3b331bc6	0.0027329787
30	0x399b9836	0.0002967731
31	0xbb9d433c	-0.0047992747
32	0xbbf3b9e0	-0.0074379295
33	0xbb9ea2ee	-0.0048412
34	0xbadc10dc	-0.0016789692
35	0x3a7b6895	0.0009590474
36	0xbb6a162c	-0.0035718782
37	0xbb9dd3b0	-0.004816495
38	0xbad2c8c5	-0.0016081562
39	0x3b820d08	0.0039688386
40	0xbb15acb8	-0.0022838544
41	0x3b0a75aa	0.0021127262
42	0xbab4c3f8	-0.0013791313
43	0x39b575fe	0.0003461092
44	0xbade99eb	-0.0016983127
45	0xbb00e452	-0.001966734
46	0x3c07a376	0.008278718
47	0x3a0627a0	0.0005117599
48	0x3ac69158	0.0015149517
49	0xba88d0ec	-0.001043824
50	0xbad5e09e	-0.0016317551
51	0x3ba8a253	0.0051463037
52	0x3bf684d4	0.0075231586
53	0xbbff16c0	-0.0077846944
54	0x3ad59ae7	0.0016296775
55	0xbb5bf369	-0.0033561832
56	0x3beac8be	0.0071650436
57	0x3b22f751	0.002486665
58	0xbbb29d83	-0.0054509058
59	0xbb996303	-0.0046809926
60	0xbb923caa	-0.004462798
61	0x39a41ace	0.0003130049
62	0x3ba409c5	0.0050060474
63	0x3bfa6997	0.007641982

main.8.weight f4 [32, 64]
0	0x3c9b44af	0.01895365
1	0xbd8eee26	-0.06979017
2	0xbd1636fd	-0.036673535
3	0xbc61367f	-0.013745903
4	0xbcb45f62	-0.022018138
5	0x3d36026e	0.04443591
6	0xbd0629c4	-0.032754675
7	0x3de87d88	0.11352068
8	0x3d425a49	0.047449384
9	0xbdafbf4a	-0.08581407
10	0x3d8d5e1a	0.06902714
11	0x3dc874a0	0.097878695
12	0x3bc62189	0.006046478
13	0x3cefeed7	0.029288692
14	0x3ddc1d13	0.10747733
15	0x3dd1912b	0.10232767
16	0xbd88621c	-0.06659338
17	0xbde5a555	-0.11213175
18	0x3d66af3b	0.056319457
19	0xbdfe3833	-0.12413063
20	0x3da43702	0.080183044
21	0x3d74f5b3	0.05980463
22	0xbddd2d25	-0.10799626
23	0x3d7809f7	0.06055638
24	0x3d8ec22c	0.06970629
25	0x3de7e1fa	0.113223985
26	0xbdbeb861	-0.09312511
27	0x3dcf175b	0.101118766
28	0xbd2d1945	-0.042260427
29	0xbd836066	-0.06414871
30	0xbdbf9cf1	-0.09356106
31	0x3d69495b	0.056954723
32	0xbd910f01	-0.0708294
33	0xbd784b29	-0.060618553
34	0x3d084ee5	0.033278365
35	0x3dcb031b	0.09912702
36	0xbd44636b	-0.047946375
37	0x3c85fd42	0.016356114
38	0xbdf721ac	-0.12066969
39	0xbd8e2d35	-0.06942216
40	0xbd575d07	-0.052578952
41	0x3da7fc59	0.08202428
42	0xbd977732	-0.073957816
43	0xbd8c34e0	-0.068460226
44	0xbdbb785b	-0.09153815
45	0xbd996c8a	-0.07491405
46	0x3cb17935	0.021664241
47	0xbc42722f	-0.011868044
48	0xbdbaf650	-0.09129012
49	0xbddd469b	-0.108044825
50	0xbdd27bb0	-0.10277498
51	0x3dc94dd1	0.098292954
52	0xbb27fb03	-0.0025631792
53	0xbde8db00	-0.11369896
54	0x3d8adde1	0.06780601
55	0x3dacf644	0.08445409
56	0xbdadd45f	-0.08487772
57	0x3de7c6c3	0.11317208
58	0xbdb8537a	-0.09000297
59	0x3ba3e2de	0.00500141
60	0xbc969551	-0.018381746
61	0xbdc8876e	-0.09791456
62	0x3d05623e	0.032564394
63	0x3dcc2b59	0.099692054
64	0xbdc7beeb	-0.097532116
65	0xbdf2513a	-0.11831899
66	0xbba39336	-0.004991914
67	0xbded70c9	-0.11593778
68	0xbdba879e	-0.09107898
69	0xbdbbe29d	-0.091740824
70	0xbd4e3317	-0.05034169
71	0xbd3ffcfd	-0.046872128
72	0x3d8c84f3	0.068612956
73	0xbdc887d2	-0.09791531
74	0xbd6fff73	-0.058593225
75	0xbd2ef055	-0.042709667
76	0x3d2dfdaa	0.04247824
77	0xbde5c2d3	-0.112188004
78	0x3c69f310	0.014279142
79	0xbdd144eb	-0.10218223
80	0xbd5ae3f8	-0.053440064
81	0xbc4e25a3	-0.0125822155
82	0xbde79f1a	-0.11309643
83	0xbdcad85a	-0.09904547
84	0xbd77b95f	-0.060479518
85	0x3cc91cd6	0.024549883
86	0xbcb3a47f	-0.021929024
87	0xbe02458c	-0.12721843
88	0x3d8577b4	0.06516972
89	0xbc38bece	-0.01127596
90	0x3dd4c2a2	0.10388686
91	0xbd53e801	-0.051734928
92	0xbb218085	-0.0024643254
93	0x3dc5cfb9	0.096587606
94	0xbd6a68d4	-0.05722888
95	0xbde86650	-0.113476396
96	0x3d68f9d2	0.056878872
97	0x3c387dc0	0.01126045
98	0xbe035b6a	-0.1282784
99	0x3c83325f	0.01601523
100	0x3d968f45	0.07351545
101	0x3cc8d1ff	0.024514196
102	0x3c324ccf	0.01088257
103	0x3b61a8e2	0.0034432937
104	0xbc1b77f5	-0.009489049
105	0x3d618c65	0.05506553
106	0xbdd20934	-0.102556616
107	0xbda79eee	-0.0818461
108	0x3d587152	0.052842446
109	0x3b8c9aeb	0.0042909286
110	0x3de542f0	0.11194408
111	0x3d5712f9	0.052508328
112	0xbdc5543c	-0.09635207
113	0x3db5a21c	0.088688105
114	0xbd707d38	-0.058713168
115	0x3d791004	0.06080629
116	0x3cf0b18e	0.02938154
117	0x3d8410bc	0.06448504
118	0x3daad296	0.08340947
119	0x3cb68b3d	0.02228319
120	0xbdac0590	-0.083994985
121	0x3debbcc6	0.11510615
122	0xbcac1a97	-0.021008773
123	0xbdd2ddbf	-0.10296201
124	0xbdf47427	-0.11936217
125	0xbdd92986	-0.10603623
126	0x3b0b77fc	0.0021281233
127	0xbd7a9183	-0.061173927
128	0xbd59ddc0	-0.053189993
129	0xbe02d5ed	-0.12776919
130	0xbc80c6aa	-0.01571973
131	0x3dcd7276	0.10031597
132	0x3cbadaf2	0.02280948
133	0xbd122e9a	-0.035688974
134	0xbdead571	-0.11466492
135	0x3d57ad60	0.052655578
136	0xbd44c07a	-0.048035122
137	0xbdefc8a5	-0.11708192
138	0xbd9240c1	-0.07141257
139	0x3c304a0b	0.010759841
140	0xbcff99cb	-0.031201264
141	0xbd13a6bb	-0.03604768
142	0x3dee4861	0.11634899
143	0xbdf8d34c	-0.12149677
144	0x3dd742bd	0.10510776
145	0xbda6e810	-0.08149731
146	0x3d99abdc	0.07503483
147	0x3d171b66	0.036891364
148	0xbd91f087	-0.07125955
149	0x3db965d0	0.09052622
150	0x3d88e642	0.06684543
151	0xbdc0a17b	-0.094058
152	0xbe055130	-0.13019252
153	0xbd4243ce	-0.047427945
154	0xbd702ebe	-0.058638327
155	0x3e047ebe	0.12938973
156	0xbd620948	-0.055184633
157	0xbd043bf6	-0.032283746
158	0xbd0fb5bc	-0.035085425
159	0xbdbd5f53	-0.09246697
160	0x3da8b023	0.082367204
161	0xbc4d66c1	-0.0125367055
162	0xbdf506f1	-0.119642146
163	0xbdd08fc3	-0.1018367
164	0xbd34bced	-0.044125486
165	0x3d4b534e	0.049639992
166	0xbc9ccb25	-0.019139836
167	0xbdeb6c88	-0.1149531
168	0x3d96460d	0.0733758
169	0xbc11ee53	-0.008906919
170	0xbd95ea46	-0.07320075
171	0xbdce9cb2	-0.10088481
172	0xbd488bb2	-0.04896135
173	0x3dc6a929	0.097002335
174	0xbe054e8a	-0.13018242
175	0x3cee9074	0.029121615
176	0x3db5e722	0.08881976
177	0xbdb42022	-0.08795191
178	0xbdbe7833	-0.0930027
179	0xbcb4d3b5	-0.022073606
180	0xbc41e5cd	-0.011834574
181	0xbd4d306b	-0.050095003
182	0xbd11e5c6	-0.03561952
183	0xbd164a98	-0.036692232
184	0xbd2ca846	-0.042152666
185	0xbcf0e686	-0.029406797
186	0xbd12a109	-0.035798106
187	0x3db787ef	0.08961474
188	0x3d5a8461	0.053348903
189	0xbd3e96e0	-0.046530604
190	0xbb422021	-0.00296212
191	0x3d4c2f68	0.049849898
192	0xbda6ae31	-0.08138693
193	0xbdc9236f	-0.098212115
194	0x3de5d1b9	0.11221642
195	0x3dcd9a8c	0.10039243
196	0xbde84b51	-0.113424905
197	0x3cfe8bfa	0.031072605
198	0x3dd613d7	0.10453003
199	0xbce74f84	-0.028236158
200	0x3dc04ec1	0.09390021
201	0xbd7888a5	-0.06067719
202	0x3d719a7e	0.058985226
203	0x3c69135e	0.014225809
204	0xbde6c94c	-0.11268863
205	0xbdad91df	-0.08475088
206	0x3de0163e	0.10941742
207	0xbdd21441	-0.102577694
208	0x3cd5a772	0.02608082
209	0xbdebba12	-0.115100995
210	0xbc1036b2	-0.008802103
211	0xbd41bdf1	-0.047300283
212	0x3d95a1df	0.07306265
213	0xbdfe9813	-0.124313496
214	0xbd8254ea	-0.06363852
215	0x3d7543de	0.059879176
216	0x3d63fc4c	0.05566053
217	0x3c22ffbd	0.009948668
218	0xbc2ce446	-0.0105524715
219	0xbd67d236	-0.056596957
220	0x3ddbf178	0.10739416
221	0xbdd59f25	-0.10430745
222	0xbdecc4e8	-0.115609944
223	0xbcc3e536	-0.023913007
224	0x3cde928d	0.02716949
225	0x3d88d7d0	0.06681788
226	0xbddaace3	-0.10677507
227	0xbd4a2858	-0.04935488
228	0xbd251e0e	-0.040311866
229	0xbdcc7621	-0.09983469
230	0xbc9f4125	-0.019440243
231	0x3e05bb61	0.1305976
232	0x3d93435d	0.07190583
233	0xbdacf0dc	-0.08444378
234	0xbdfdd620	-0.12394357
235	0x3d946c1b	0.07247182
236	0x3e00ea07	0.12589274
237	0xbd958cb2	-0.07302226
238	0x3cc576ba	0.024104465
239	0xbcd39a03	-0.025830274
240	0x3e017c63	0.12645106
241	0x3d0aa16c	0.03384535
242	0x3db7fcd8	0.08983773
243	0xbda2a48e	-0.079415426
244	0x3d83ba9b	0.064320765
245	0xbcf4550f	-0.029825715
246	0x3c978e41	0.01850045
247	0x3da4fa60	0.08055568
248	0xbdf06e35	-0.1173977
249	0xbda82ee1	-0.082120664
250	0x3dd27248	0.10275704
251	0xbdea1398	-0.114295185
252	0x3db5000f	0.08837902
253	0x3dffc1cf	0.12488138
254	0xbccf469a	-0.02530222
255	0x3b14ccc8	0.0022705067

main.8.bias f4 [32]
0	0x3e0107a5	0.12600572
1	0xbd981d7f	-0.07427501
2	0x3ddbfa19	0.10741062
3	0xbd9aac29	-0.07552368
4	0xbd4ab77c	-0.04949139
5	0xbda4740a	-0.08029945
6	0x3d2d1799	0.042258833
7	0x3d0c8b16	0.03431233
8	0x3cb358c2	0.021892909
9	0x3d2d1a8e	0.042261653
10	0xbdd55c5f	-0.10418009
11	0x3d2dea67	0.04245987
12	0xbdeaeddc	-0.11471149
13	0xbd27ab68	-0.04093495
14	0xbc29e0a8	-0.010368504
15	0x3dc25052	0.09487976
16	0xbd0d9d93	-0.034574103
17	0x3c25d6e3	0.010122034
18	0x3d9f708b	0.07785138
19	0xbd577f23	-0.05261148
20	0x3c93050b	0.01794674
21	0xbd1dffed	-0.038574148
22	0xbdcdce04	-0.1004906
23	0x3dc6a025	0.09698514
24	0xbd9cfb5b	-0.0766513
25	0xbd9780ef	-0.07397639
26	0xbdbfe149	-0.093691416
27	0x3d8fc8b3	0.07020702
28	0xbe05a3ce	-0.13050768
29	0xbd90826b	-0.07056125
30	0xbdc3dc47	-0.09563499
31	0x3d8fe1b3	0.070254706

main.9.weight f4 [32]
0	0x3f7fa914	0.9986737
1	0x3f7e7361	0.99394804
2	0x3f7e2673	0.9927742
3	0x3f7f098e	0.99623954
4	0x3f7ea214	0.9946606
5	0x3f7ec5b5	0.99520427
6	0x3f80fc23	1.0076946
7	0x3f8032dd	1.0015522
8	0x3f7efb02	0.9960176
9	0x3f80ae26	1.0053146
10	0x3f80658e	1.0030992
11	0x3f7edc17	0.9955458
12	0x3f8056a5	1.0026442
13	0x3f7fbe50	0.9989977
14	0x3f7e55e9	0.9934984
15	0x3f80fc7f	1.0077056
16	0x3f807e45	1.0038534
17	0x3f7fdf3c	0.99950004
18	0x3f7f0edc	0.9963205
19	0x3f810724	1.0080304
20	0x3f80e494	1.0069757
21	0x3f7f35ec	0.99691653
22	0x3f7df0ce	0.99195564
23	0x3f7e9492	0.9944545
24	0x3f80ca08	1.0061655
25	0x3f7f922e	0.9983243
26	0x3f7e4923	0.9933035
27	0x3f7ebd37	0.9950747
28	0x3f7f33b9	0.996883
29	0x3f802c8f	1.0013598
30	0x3f7f3dcf	0.9970369
31	0x3f7e29b7	0.992824

main.9.bias f4 [32]
0	0x3ab9b3e7	0.0014167995
1	0xbb7bb090	-0.00384048
2	0xbbfedff4	-0.007778162
3	0xbb85d5b7	-0.0040843147
4	0xbb788aba	-0.0037924484
5	0xbb8653f1	-0.004099362
6	0x3b14a33b	0.00226803
7	0xb9529af4	-0.00020084885
8	0x3aa92702	0.0012905302
9	0x3ae9f250	0.0017848704
10	0x3b141f04	0.0022601495
11	0xbb63d9db	-0.0034767303
12	0xba39141a	-0.00070601853
13	0xb7dd72e3	-2.6398751e-05
14	0xbb9fd621	-0.004877821
15	0x3b754616	0.0037425808
16	0xba3a39b3	-0.0007103935
17	0x3b8355bb	0.0040080226
18	0xbb6a2743	-0.0035728968
19	0x3bb35ece	0.005473948
20	0x3be0fb15	0.006865869
21	0xbb2e47b2	-0.0026593027
22	0xbc02ff91	-0.007995502
23	0xbb6dd163	-0.0036288134
24	0x3bc74ce7	0.0060821655
25	0x3b85b610	0.0040805414
26	0xbbf57b0d	-0.0074914754
27	0xbb5e2b08	-0.003390016
28	0xbb255ff9	-0.0025234206
29	0x3a95baa5	0.0011423422
30	0xba2f6c8f	-0.00066918967
31	0x38d897a8	0.00010327931

main.11.weight f4 [2, 32]
0	0x3e03607f	0.12829779
1	0x3e015a35	0.12632068
2	0x3d921bd6	0.071342155
3	0xbcbbeae6	-0.022939157
4	0x3e0093fd	0.12556453
5	0xbd9ddced	-0.07708154
6	0x3bd1e785	0.006405773
7	0x3db44ebe	0.088040814
8	0xbe2cff09	-0.16894163
9	0x3ca0f066	0.01964588
10	0x3e18beae	0.14916489
11	0x3e1b1683	0.15145306
12	0xbdef8a70	-0.11696327
13	0x3e1aa9c5	0.15103824
14	0x3e160d84	0.14653593
15	0xbe24994c	-0.16074103
16	0xbcd61749	-0.02613415
17	0x3d8f4a7b	0.06996628
18	0x3d114fd3	0.035476517
19	0xbe3ca2a8	-0.18421423
20	0x3ace8736	0.0015756849
21	0xbca839ff	-0.020535467
22	0x3da31e78	0.07964796
23	0x3d8d3a33	0.06895866
24	0x3cddcd94	0.027075566
25	0xbdd61bd1	-0.10454524
26	0xbcff06f8	-0.031131253
27	0xbdd58e8f	-0.104275815
28	0xbe225264	-0.15851742
29	0x3cf8d4e1	0.030374946
30	0xbdad180c	-0.08451852
31	0xbe25a02d	-0.16174383
32	0xbe2b6be0	-0.1674037
33	0xbdc99b3a	-0.0984406
34	0x3e116874	0.14200002
35	0xbe02def6	-0.12780365
36	0xbde2d4ae	-0.11075722
37	0xbdd54629	-0.104137726
38	0xbda341cf	-0.07971536
39	0xbe0055cd	-0.1253273
40	0x3db062e2	0.086126104
41	0xbe1f2d1d	-0.15544553
42	0x3e35ddef	0.17760442
43	0xbc4c9a29	-0.0124879265
44	0xbe361612	-0.17781857
45	0xbe056691	-0.13027407
46	0x3ba8db65	0.005153107
47	0x3e16bad3	0.14719705
48	0xbe05bb08	-0.13059628
49	0x3d70731a	0.05870352
50	0x3a697281	0.0008905307
51	0xbd1a5f29	-0.037688408
52	0xbe122edb	-0.14275686
53	0xbe2752de	-0.16340205
54	0x3e18121e	0.14850661
55	0xbdc2924b	-0.095005594
56	0xbdca5416	-0.09879319
57	0x3dc224e9	0.09479696
58	0x3dc1380a	0.09434517
59	0xbe1f85e1	-0.15578414
60	0xbd926766	-0.07148628
61	0x3dfa4fdc	0.12222263
62	0xbcf925e9	-0.030413585
63	0x3e25ab2a	0.16178575

main.11.bias f4 [2]
0	0x3e109ced	0.14122362
1	0xbc09e643	-0.008416715
